RNN/saved_models/gru_model.pt (torch, 602149 bytes, 9 tensors)

rnn.weight_ih_l0 f4 [384, 1]
0	0xbe522667	-0.20522462
1	0xbeaddb0c	-0.33956182
2	0xbca9ea12	-0.020741496
3	0xba8b99fc	-0.0010650749
4	0xbd8c7cda	-0.06859751
5	0xbcbf54ac	-0.023355804
6	0xbe5fa6fd	-0.21841045
7	0xbeb1d37b	-0.3473166
8	0x3c68b345	0.014202897
9	0xbe735a62	-0.23764947
10	0xbe5566b6	-0.20839962
11	0xbe5fdf1f	-0.21862458
12	0xbd0f31bc	-0.03495954
13	0xbe675c84	-0.22593886
14	0xbe324e0a	-0.17412582
15	0xbd4e5f6c	-0.05038397
16	0xbe30275d	-0.17202516
17	0xbec15d28	-0.37766385
18	0xbdb1c6db	-0.08680507
19	0xbe00c196	-0.12573847
20	0xbd5abd25	-0.05340304
21	0xbdaa3af4	-0.08312026
22	0x3b8f7a0f	0.004378564
23	0xbd998ab3	-0.07497158
24	0xbe8c591f	-0.27411744
25	0xbe74ad2a	-0.23894182
26	0xbe81d569	-0.25358132
27	0xbe60f54f	-0.21968578
28	0xbd332efe	-0.043745987
29	0x3da663d8	0.081245124
30	0xbe5225fd	-0.20522304
31	0xbe305ce0	-0.17222929
32	0xbd7674d8	-0.060170025
33	0xbe13e572	-0.14442995
34	0xbe4a38ef	-0.19748281
35	0xbe2ffc04	-0.1718598
36	0xbd38f068	-0.045151144
37	0xbe473cf5	-0.19456847
38	0xbdde4c67	-0.10854416
39	0x3dd9e8a6	0.10640077
40	0xbde5f499	-0.11228294
41	0xbc2e7099	-0.010646963
42	0xbd90b665	-0.07066039
43	0xbe9e27f1	-0.30889848
44	0xbe01921e	-0.12653396
45	0xbc6a80da	-0.014312947
46	0xbe528db9	-0.20561875
47	0xbdcf4ab2	-0.10121669
48	0xbda2f431	-0.07956732
49	0xbe118702	-0.14211658
50	0xbdd1124c	-0.10208568
51	0xbc7ea353	-0.015541869
52	0xbe9d8755	-0.30767313
53	0xbcb3221d	-0.021866852
54	0x3ce46f10	0.02788499
55	0xbe687950	-0.22702527
56	0xbddd6e08	-0.108120024
57	0xbda991b9	-0.082797475
58	0xbe8f676e	-0.28008598
59	0xbcd1fc33	-0.025632953
60	0xbd4b0f70	-0.04957527
61	0xbcb1171b	-0.021617463
62	0xbcfbf20a	-0.030755062
63	0x3cea4e41	0.028601767
64	0xbe3f2ff6	-0.1867064
65	0xbdc8867f	-0.09791278
66	0xbe0906de	-0.13381526
67	0xbe9b062a	-0.3027814
68	0xbe3a67dd	-0.18203683
69	0xbe3401c3	-0.17578797
70	0xbdc68d1f	-0.096948855
71	0xbdfa6bed	-0.122276165
72	0xbe9b8705	-0.3037645
73	0xbe0dc099	-0.13843001
74	0xbe4da642	-0.20082954
75	0xbe775039	-0.24151696
76	0xbda8da92	-0.08244814
77	0x3db8b224	0.09018353
78	0xbe062822	-0.13101247
79	0xbd02972c	-0.03188245
80	0xbea794c6	-0.32730693
81	0xbe7deeb5	-0.24798091
82	0xbdcf3487	-0.10117441
83	0xbe4c39bc	-0.19943899
84	0xbd9c85ac	-0.076426834
85	0xbcd0c98a	-0.025486726
86	0xbd93fbf7	-0.07225793
87	0xbdc2d045	-0.095123805
88	0xbe6ec285	-0.23316391
89	0xbe9a1b2e	-0.3009886
90	0xbe6717fa	-0.2256774
91	0xbdaaa11a	-0.08331509
92	0xbc4daeba	-0.012553865
93	0xbe061ec3	-0.13097672
94	0x3d3ceef4	0.04612632
95	0xbe3cd439	-0.18440332
96	0xbe39c11a	-0.18140069
97	0xbe08916d	-0.13336726
98	0x3c5d07fe	0.013490675
99	0xbe7164f2	-0.23573664
100	0x3e12d944	0.14340693
101	0xbe4686e4	-0.19387394
102	0xbd204026	-0.039123677
103	0xbd32cea7	-0.04365411
104	0xbe55e733	-0.20888977
105	0x3e2c249b	0.16810839
106	0xbdbd05b4	-0.092296034
107	0xbd450afa	-0.04810617
108	0xbe8fec1e	-0.2810983
109	0xbdca6d19	-0.0988409
110	0xbd579e1e	-0.052641027
111	0xbe81fdfa	-0.2538908
112	0xbd96d7cb	-0.07365378
113	0xbdc21237	-0.094761305
114	0xbddd8c7d	-0.10817812
115	0xbe44664c	-0.19179648
116	0xbd6b1e8b	-0.057402175
117	0xbbc297c8	-0.005938504
118	0x3aa5af69	0.0012640777
119	0x3d6b4a24	0.057443753
120	0xbd68e789	-0.056861434
121	0x3dcc116e	0.09964262
122	0xbe78c044	-0.24292094
123	0xbcca0f2c	-0.024665438
124	0xbe90aaba	-0.28255254
125	0xbe52c86f	-0.20584272
126	0xbe2eb48f	-0.17061065
127	0xbd18f86f	-0.0373463
128	0xbe737068	-0.23773348
129	0xbeaf7595	-0.34269395
130	0xbd69bc44	-0.05706431
131	0xbe889027	-0.2667248
132	0xbe748c7d	-0.23881717
133	0xbe32da61	-0.17466117
134	0xbea9a62b	-0.3313459
135	0xbeb2b9c3	-0.3490735
136	0x3c5fa2a6	0.013649618
137	0xbee67564	-0.45011437
138	0x3e7df909	0.2480203
139	0xbe2108b9	-0.15725984
140	0xbd7107b6	-0.058845244
141	0xbd9a4a01	-0.075336464
142	0xbd086f1e	-0.033309095
143	0x3e654aa7	0.22391759
144	0xbe88fd98	-0.26755977
145	0xbe846030	-0.25854635
146	0xbd818d7c	-0.06325814
147	0xbe1da6a0	-0.15395594
148	0xbe4ab83b	-0.19796841
149	0xbe8f624f	-0.2800469
150	0x3e075a80	0.13218117
151	0x3e189c60	0.14903402
152	0xbe8f5f21	-0.28002265
153	0xbedaff36	-0.42772835
154	0xbec3b744	-0.38225758
155	0xbe3d34b8	-0.18477142
156	0x3d55228f	0.05203491
157	0xbc9c1d24	-0.019056864
158	0xbeab128b	-0.33412585
159	0xbe13803b	-0.14404385
160	0xbe85ccef	-0.26132914
161	0xbdf10036	-0.11767618
162	0xbe90eb4b	-0.28304514
163	0xbcf8de07	-0.030379308
164	0xbe038951	-0.12845351
165	0xbe968f0f	-0.2940602
166	0x3e21b361	0.15791084
167	0xbdef0d3d	-0.11672447
168	0xbd1b9d6a	-0.03799192
169	0xbe5b9e37	-0.21447073
170	0xbe62768e	-0.22115538
171	0xbe96a95b	-0.29426083
172	0xbcc85a0d	-0.024457002
173	0xbe969423	-0.29409894
174	0xbd63b15c	-0.055589065
175	0x3e7ca884	0.24673659
176	0xbe305c83	-0.1722279
177	0xbe0e9a85	-0.13926132
178	0xbe410880	-0.18850899
179	0xbd5cebbf	-0.053935762
180	0xbe063184	-0.13104826
181	0xbdd2efc8	-0.10299641
182	0xbdcb3272	-0.09921731
183	0xbe2627f4	-0.16226178
184	0xbd41c658	-0.047308296
185	0xbe6bc820	-0.2302556
186	0xbe21a1b1	-0.15784337
187	0xbe031e38	-0.12804496
188	0xbeaf38f0	-0.34223127
189	0x3e443414	0.19160491
190	0x3e07b090	0.13250947
191	0x3df0040a	0.117195204
192	0xbe53e138	-0.20691383
193	0x3e56527d	0.20929904
194	0xbdff11a2	-0.12454535
195	0xbe17a4f0	-0.14809012
196	0x3d42571c	0.047446355
197	0xbe98402e	-0.29736465
198	0xbe774caa	-0.24150339
199	0xbc60abdf	-0.013712852
200	0xbec341b7	-0.38136074
201	0x3d80e1e1	0.06293083
202	0xbe80d169	-0.25159767
203	0xbe0c0edb	-0.13677542
204	0x3dfb952d	0.122843124
205	0xbe3f197d	-0.18662067
206	0xbe678810	-0.22610497
207	0xbe1b83e0	-0.15187025
208	0xbe10e40d	-0.14149494
209	0xbe8775ce	-0.26457065
210	0xbe4afc31	-0.19822766
211	0x3a35b424	0.0006931445
212	0xbd88f39d	-0.066870905
213	0xbd9d8686	-0.07691674
214	0x3cab996b	0.020947179
215	0x3bf2e3d2	0.007412412
216	0x3b81c537	0.0039602774
217	0xbe326106	-0.17419824
218	0xbe79cb23	-0.24393897
219	0xbde4f72f	-0.11179959
220	0xbd243b33	-0.04009552
221	0xbe466feb	-0.19378631
222	0xbe31a156	-0.17346701
223	0xbdcd42cd	-0.10022507
224	0xbdfcd916	-0.12346093
225	0xbd808339	-0.06275029
226	0xbcb4ae5b	-0.022055795
227	0xbe8c3746	-0.2738592
228	0xbe0c0c37	-0.13676535
229	0xbeb954cb	-0.36197504
230	0xbe0e27e2	-0.13882402
231	0xbe0b41c2	-0.13599303
232	0xbeab9616	-0.33512944
233	0xbdc8381a	-0.097763255
234	0x3e0d2a77	0.1378573
235	0xbdf97f75	-0.121825136
236	0xbe996771	-0.29961732
237	0xbe1caf0d	-0.15301152
238	0x3e3b2ce3	0.18278842
239	0x3da8b07f	0.08236789
240	0xbdf1c8f4	-0.11805907
241	0x3d68d319	0.056841943
242	0xbec6e112	-0.3884359
243	0x3ded6962	0.11592366
244	0x3e2379eb	0.15964477
245	0xbc761485	-0.015019541
246	0x3e20dce2	0.1570926
247	0xbe497da9	-0.19676842
248	0xbe248380	-0.16065788
249	0x3d6c9c82	0.057766445
250	0xbea34dd9	-0.3189533
251	0x3e068a60	0.13138723
252	0xbe25b92a	-0.16183916
253	0x3e4db578	0.20088756
254	0xbdf33ab2	-0.118764296
255	0x3cabae61	0.020957174

rnn.weight_hh_l0 f4 [384, 128]
0	0xbdc1f7fb	-0.09471127
1	0x3c58c2d5	0.013230045
2	0xbe03a91d	-0.1285748
3	0x3ddf0cb5	0.108910955
4	0x3dfc72d0	0.12326586
5	0x3d90ab8b	0.07063969
6	0xbdc6bff0	-0.09704578
7	0x3db404be	0.08789967
8	0x3df56ffe	0.119842514
9	0x3e396a02	0.18106845
10	0x3da94907	0.08265882
11	0x3dfb7567	0.12278252
12	0xbe039823	-0.12851004
13	0xbd58c8e6	-0.052925967
14	0x3da4d8c2	0.08049156
15	0x3e56ef5d	0.20989747
16	0xbd3b027e	-0.045656674
17	0x3baeed57	0.0053383517
18	0xbcc25b44	-0.02372516
19	0x3d18e77a	0.03733013
20	0xbe0f8ad8	-0.14017808
21	0x3d97db25	0.074148454
22	0xbe087702	-0.13326648
23	0xbd9a7e60	-0.07543635
24	0x3e00b881	0.12570383
25	0xbcb43a1e	-0.022000369
26	0xbd26b747	-0.04070213
27	0x3db5d3e8	0.088783085
28	0x3c90976c	0.017650329
29	0x3e13e16f	0.14441465
30	0xbdd7d43b	-0.105385266
31	0x3c5635b6	0.013074329
32	0xbdbccabf	-0.09218358
33	0xbc91f573	-0.017817235
34	0x3df9b789	0.1219321
35	0x3d850688	0.06495386
36	0x3d059ac5	0.032618303
37	0x3dc9e187	0.09857469
38	0x3d0d440b	0.03448872
39	0xbd65c66d	-0.056097437
40	0x3de51770	0.11186111
41	0xbda92851	-0.08259643
42	0x3dbbcb63	0.09169652
43	0xbd3da4c6	-0.04629972
44	0x3df08c86	0.11745553
45	0xbe061870	-0.1309526
46	0xbdebe9e6	-0.11519222
47	0x3d28f5ac	0.041249916
48	0x3e198b2a	0.14994493
49	0xbd0f828b	-0.035036605
50	0x3d407e48	0.04699543
51	0xbdf8c278	-0.12146467
52	0x3cee8e1b	0.029120496
53	0xbd548dc5	-0.051893014
54	0xbdb71719	-0.089399524
55	0x3dccf871	0.10008324
56	0x3e0c4be8	0.13700831
57	0xbdc0aaea	-0.09407599
58	0x3cb5f8bf	0.022213338
59	0xbe0a8fb4	-0.13531381
60	0x3e4bd245	0.1990443
61	0xbdec356d	-0.11533628
62	0x3d8aef78	0.06783956
63	0x3da5b27e	0.08090685
64	0x3be657bb	0.0070295013
65	0x3d5ea76e	0.054358892
66	0xbdc161af	-0.0944246
67	0xbc936a63	-0.017995065
68	0x3d49bf8b	0.049254935
69	0x3e0bd367	0.13654862
70	0xbd6a2f52	-0.057174034
71	0x3df741cd	0.120730974
72	0xbd1175b2	-0.035512634
73	0xbd61e551	-0.055150334
74	0xbd8d97c8	-0.069137156
75	0x3d7eb6cf	0.06218606
76	0xbe0c0c12	-0.1367648
77	0x3e5304d2	0.20607308
78	0x3d068a72	0.032846875
79	0x3d03b53e	0.032155268
80	0x3dbb2c97	0.09139364
81	0xbdc1d1d1	-0.094638474
82	0x3e2813e5	0.16413839
83	0xbe0051e8	-0.12531245
84	0xbda8344d	-0.082131006
85	0x3df995c9	0.121867724
86	0x3dc4ef81	0.09615994
87	0xbd271c97	-0.04079875
88	0x3dcf8aa6	0.10133867
89	0xbc4d1edd	-0.012519565
90	0x3d4fbc2b	0.05071656
91	0x3c2c3104	0.010509733
92	0x3dbde4f7	0.09272187
93	0x3da77697	0.08176916
94	0xbe359398	-0.17732084
95	0xbd8b3efb	-0.06799122
96	0xbe0efbc4	-0.13963228
97	0x3df26b2b	0.11836847
98	0xbd51b6b4	-0.05119963
99	0x3d5ce946	0.053933404
100	0x3e31259e	0.17299506
101	0x3bd90682	0.0066230902
102	0xbd827e7a	-0.0637178
103	0xbde3e030	-0.11126745
104	0xbde7ee8a	-0.113247946
105	0x3e0ea58c	0.13930339
106	0xbdef8f05	-0.11697201
107	0x3d08a373	0.033359002
108	0x3d3257dc	0.04354082
109	0x3d8592ef	0.06522166
110	0xbd7e8dac	-0.062146828
111	0x3d58cbda	0.052928783
112	0x3d9648d5	0.0733811
113	0x3bc40a8b	0.005982702
114	0x3e03562d	0.12825842
115	0xbc53766c	-0.012906652
116	0x3db30843	0.0874181
117	0x3bcbd934	0.006220961
118	0xbdf60b99	-0.12013931
119	0xbd448de0	-0.047986865
120	0xbaefd20e	-0.0018296854
121	0xbe4a956c	-0.19783562
122	0xbdf23823	-0.118271135
123	0xbdd2e347	-0.10297256
124	0x3dca4276	0.09875958
125	0xbda9c28e	-0.082890615
126	0x3db83e3d	0.08996246
127	0xbcacf396	-0.021112245
128	0xbc98b1b6	-0.018639427
129	0x3de3613e	0.11102532
130	0xbdb08121	-0.086183794
131	0x3e29c161	0.16577674
132	0x3afc3b29	0.0019243705
133	0x3e647491	0.22310092
134	0xbdbccaf6	-0.09218399
135	0x3c03c7c9	0.008043238
136	0x3ddf0bed	0.108909465
137	0x3e214b0e	0.15751287
138	0x3c5f38ec	0.013624411
139	0x3c992ac6	0.018697154
140	0xbd9a1b10	-0.07524693
141	0x3d2b8a1a	0.04187975
142	0xbda87d38	-0.082270086
143	0x3e65c667	0.22438966
144	0xbd64e524	-0.055882588
145	0x3c0d260c	0.008615028
146	0xbc7c4966	-0.015398359
147	0xbd681e79	-0.056669686
148	0xbe46f38c	-0.19428843
149	0x3e6ef548	0.23335755
150	0xbbb0a5d9	-0.0053908643
151	0x3dccfc50	0.10009062
152	0xbb2e2f71	-0.002657857
153	0x3d1ac81c	0.037788495
154	0xbe12be51	-0.14330412
155	0x3d8fde1a	0.070247844
156	0xbd57d1d1	-0.05269033
157	0x3e4e39cc	0.20139235
158	0xbe5b8a42	-0.2143946
159	0x3e101c69	0.14073338
160	0xbdd4590d	-0.103685476
161	0xbe1a2896	-0.15054545
162	0x3db85f27	0.09002524
163	0x3e5628f8	0.20914066
164	0x3da8d407	0.08243566
165	0x3da78aab	0.08180746
166	0xbd8db1d8	-0.06918687
167	0xbe13c1da	-0.14429417
168	0x3d9ed9e1	0.07756401
169	0xbd3f5deb	-0.046720427
170	0x3e2737f3	0.16329937
171	0xbe4ed73d	-0.20199294
172	0xbd33711b	-0.043809038
173	0xbdb3497a	-0.08754249
174	0xbb83b8b5	-0.0040198215
175	0x3e318f9b	0.17339937
176	0x3e1bea49	0.15226091
177	0xbd94a109	-0.072572775
178	0x3cf21da6	0.029555153
179	0xbe08ec6a	-0.13371435
180	0x3d7fe0ec	0.06247036
181	0x3b561c2e	0.0032670605
182	0xbe2c5de3	-0.1683269
183	0x3d80e6d4	0.06294027
184	0x3d5f3acd	0.054499436
185	0x3da2068d	0.07911406
186	0x3c85416a	0.016266543
187	0xbd3b9a40	-0.0458014
188	0x3e26c8b6	0.16287503
189	0xbe0cdbce	-0.13755724
190	0xbdcc0126	-0.099611565
191	0x3e3e7ded	0.18602724
192	0xbd9cc549	-0.07654817
193	0x3d413c76	0.0471768
194	0xbc979ebd	-0.01850831
195	0x3db33cf8	0.08751863
196	0x3d1c9232	0.03822536
197	0x3d9a8e09	0.07546622
198	0x3cd7f207	0.026360525
199	0x3e41ba4f	0.18918727
200	0xbdc3c043	-0.095581554
201	0x3c31d407	0.010853774
202	0xbdf2639b	-0.118354045
203	0xbd974eca	-0.07388075
204	0xbcd8e6c8	-0.026477233
205	0x3e56afdb	0.20965521
206	0x3e0cc177	0.13745676
207	0x3dfb1441	0.122597225
208	0x3ca7c46c	0.020479403
209	0xbda95384	-0.082678825
210	0x3e1b14f8	0.15144718
211	0xbd0b8a0c	-0.0340672
212	0xbe64b774	-0.22335607
213	0x3dec1de4	0.11529139
214	0x3e381ca8	0.17979681
215	0xbe1c4b3f	-0.15263079
216	0x3d6d4936	0.057931148
217	0xbc570fcc	-0.013126325
218	0x3d54a5cf	0.05191594
219	0xbe0b9cbf	-0.13634013
220	0x3e784128	0.24243605
221	0xbdb06b9b	-0.08614274
222	0xbe216ef6	-0.15764984
223	0xbdf5b541	-0.11997462
224	0xbd999fca	-0.075011805
225	0x3e3426cc	0.17592925
226	0xbd019408	-0.031635314
227	0x3e1b7aec	0.1518361
228	0x3dd58ef5	0.104276575
229	0xbd8052f6	-0.062658235
230	0xbd9db4f4	-0.0770053
231	0xbe2bfe12	-0.16796139
232	0xbe0ace15	-0.13555177
233	0x3e2f2603	0.17104344
234	0xbe2224f2	-0.15834406
235	0x3c41e633	0.011834669
236	0x3d44e657	0.04807123
237	0x3e2b6d7c	0.16740984
238	0xbe0f0b4e	-0.13969156
239	0x3e35d968	0.17758715
240	0x3bbe4ddd	0.005807622
241	0xbda97b59	-0.0827548
242	0x3d8c2cc2	0.068444744
243	0x3d3ffb1c	0.046870336
244	0x3dbf839f	0.093512766
245	0xbe0fb914	-0.14035445
246	0xbe1f0449	-0.15528978
247	0xbdad9b4e	-0.08476888
248	0xbd659710	-0.056052268
249	0xbe7ff2ce	-0.24994966
250	0xbd8012c0	-0.06253576
251	0xbba8f4be	-0.0051561287
252	0x3dc066a5	0.09394578
253	0xbbf31374	-0.0074180905
254	0x3d9bd4b6	0.07608931
255	0xbe054c71	-0.13017441

rnn.bias_ih_l0 f4 [384]
0	0xbde5ac3e	-0.11214493
1	0xbe29c0f6	-0.16577515
2	0xbc624eb1	-0.013812707
3	0xbd7e387e	-0.062065594
4	0xbdf5fe07	-0.120113425
5	0xbd8bccaf	-0.0682615
6	0xbe2cb778	-0.16866863
7	0xbe9d424c	-0.30714643
8	0xbc8d6644	-0.017260678
9	0xbe048793	-0.12942342
10	0xbe17defa	-0.14831153
11	0xbcfa376c	-0.030544005
12	0xbd63bfc0	-0.05560279
13	0xbe3c09bd	-0.1836309
14	0xbe2193df	-0.15779065
15	0x3d058762	0.032599814
16	0xbe204e91	-0.1565497
17	0xbeb94ca0	-0.36191273
18	0xbdf2bf56	-0.11852901
19	0xbe746e94	-0.23870307
20	0xbde28b3f	-0.11061715
21	0xbe4fd4c4	-0.20296007
22	0xbd9f42b6	-0.07776396
23	0xbe264676	-0.16237816
24	0xbdbdd18f	-0.09268486
25	0xbe5ba7f8	-0.21450794
26	0xbe6d76a7	-0.23189794
27	0x3c933110	0.01796773
28	0xbe00feea	-0.12597242
29	0xbd91766e	-0.07102667
30	0xbdb650a6	-0.08902101
31	0xbdd08e85	-0.101834334
32	0xbe0e0f4f	-0.13873027
33	0xbe8a2146	-0.2697851
34	0xbe5034b3	-0.20332603
35	0x3b5f70ac	0.0034094257
36	0xbd6dc146	-0.058045648
37	0xbe55eb5b	-0.20890562
38	0xbe007246	-0.12543592
39	0xbd45aacf	-0.0482586
40	0xbdec762c	-0.11545977
41	0xbe4520aa	-0.19250742
42	0xbd69723a	-0.0569937
43	0xbe1535b1	-0.14571263
44	0xbdc2cf15	-0.09512154
45	0xbdb554c6	-0.0885406
46	0xbdbb257d	-0.0913801
47	0x3d302045	0.042999525
48	0xbe16af65	-0.14715345
49	0xbc8ba880	-0.01704812
50	0xbe3c9dd0	-0.18419576
51	0xbe1ee050	-0.15515256
52	0xbe27d37d	-0.1638927
53	0xbd734fcc	-0.059402272
54	0xbd3b5ec5	-0.045744676
55	0xbe05cd41	-0.1306658
56	0xbde8ecdc	-0.11373302
57	0x3af2f0d8	0.0018534912
58	0xbe5989ba	-0.21243945
59	0xbdc42e48	-0.0957914
60	0xbe037d42	-0.12840751
61	0xbc894baa	-0.016759712
62	0x3d71e7b4	0.05905886
63	0x3d2cb07f	0.042160507
64	0xbe057042	-0.13031104
65	0xbd8f13e5	-0.069862165
66	0xbe895f99	-0.26830748
67	0xbe86c930	-0.2632537
68	0x3c974767	0.018466664
69	0xbd654a1c	-0.05597888
70	0xbd64626f	-0.055757936
71	0xbe245059	-0.16046275
72	0xbe9e85f6	-0.3096158
73	0xbe02a59d	-0.12758489
74	0xbe6500f6	-0.22363648
75	0xbe0e7314	-0.13911086
76	0xbe33e9bb	-0.1756963
77	0xbd58b6c7	-0.052908685
78	0xbdd4f6d3	-0.103986405
79	0xbd913c62	-0.07091595
80	0xbc71a4d5	-0.014748772
81	0xbce766f5	-0.028247336
82	0xbe48cafa	-0.1960868
83	0xbd854bb5	-0.065085806
84	0xbd4cf9b6	-0.05004283
85	0xbe0c4434	-0.13697892
86	0xbb7fd017	-0.0039033943
87	0xbdb901fa	-0.0903358
88	0xbd94922f	-0.07254445
89	0xbe39c270	-0.18140578
90	0xbe96001b	-0.29296955
91	0xbd6fca7b	-0.05854271
92	0x3cf81634	0.030284025
93	0xbe3aed47	-0.18254577
94	0x3de1e61d	0.11030219
95	0xbdb051fd	-0.08609388
96	0xbe05fc40	-0.13084507
97	0xbe21c709	-0.15798582
98	0x3bb8421b	0.0056231148
99	0xbe28d173	-0.16486149
100	0xbe05ee6f	-0.13079236
101	0xbd9bdeb1	-0.076108344
102	0xbe198e41	-0.14995672
103	0xbe182d0b	-0.14860933
104	0xbe121fc6	-0.14269933
105	0xbdb00de3	-0.08596399
106	0x3ca91079	0.020637738
107	0xbd9a2c0c	-0.075279325
108	0x3ce2257b	0.027605763
109	0xbe4c6153	-0.19959001
110	0xbdda5c34	-0.106621176
111	0xbe206fd8	-0.15667665
112	0xbe31cc0f	-0.17362998
113	0xbc2c7585	-0.010526066
114	0xbe418df8	-0.18901813
115	0xbdf052c3	-0.117345355
116	0xbd26827e	-0.04065179
117	0xbd91ff18	-0.071287334
118	0xbe113664	-0.14180905
119	0xbdef488d	-0.1168376
120	0xbe2ef0a3	-0.17083983
121	0xbde0ebf9	-0.10982508
122	0xbc07b01b	-0.008281733
123	0xbdae8591	-0.085215695
124	0xbe3ab337	-0.18232428
125	0xbd8e7bd5	-0.06957213
126	0xbe19e1d1	-0.15027548
127	0xbd64b4e2	-0.055836566
128	0xbe3af486	-0.18257341
129	0xbe98dc2f	-0.29855487
130	0xbd89bdd1	-0.06725658
131	0xbe3d6545	-0.18495663
132	0xbe53f41e	-0.20698592
133	0xbe34b8a2	-0.17648557
134	0xbdae93f8	-0.085243165
135	0xbe614994	-0.22000724
136	0xbba5ed99	-0.0050637242
137	0xbe7ae3bf	-0.2450094
138	0x3d6a4563	0.05719508
139	0xbe2073a0	-0.15669107
140	0xbe166009	-0.14685072
141	0xbda29fd0	-0.07940638
142	0xbdddf135	-0.10837022
143	0x3e667f7d	0.2250957
144	0xbe2f388d	-0.17111416
145	0xbe601178	-0.21881664
146	0x3cc17e9f	0.023619948
147	0xbe62821e	-0.22119948
148	0xbe7efabe	-0.24900338
149	0xbe3a4d1a	-0.18193474
150	0x3e288ee6	0.16460761
151	0x3e0189f0	0.12650275
152	0xbe0ae253	-0.13562898
153	0xbe77959b	-0.24178164
154	0xbe7abfeb	-0.24487273
155	0xbded9dbc	-0.11602351
156	0xbb97e006	-0.00463486
157	0x3c9c09cc	0.01904764
158	0xbe3da9e9	-0.18521847
159	0xbe43c882	-0.19119456
160	0xbe36e127	-0.17859326
161	0xbe6f6fc9	-0.23382486
162	0xbe496434	-0.1966713
163	0xbd8e924f	-0.069615
164	0xbe47ce4f	-0.19512294
165	0xbe055afb	-0.13022988
166	0x3de637a3	0.112410806
167	0xbc288888	-0.010286458
168	0xbd00e89a	-0.031471826
169	0xbe237285	-0.15961654
170	0xbdd042f3	-0.101690196
171	0xbe8e39ee	-0.27778572
172	0x3d163cd1	0.036679093
173	0xbe9ca781	-0.30596545
174	0x3e3f9245	0.18708141
175	0x3d4590d2	0.048233815
176	0xbd47cd58	-0.048779815
177	0xbd268c03	-0.04066087
178	0xbea328dd	-0.31867114
179	0xbd8ab7e9	-0.06773359
180	0x3d076c6e	0.03306239
181	0x3db45485	0.08805183
182	0xbca189a7	-0.019718958
183	0xbe37fbfd	-0.1796722
184	0xbc9fab0d	-0.019490743
185	0xbcf80e64	-0.0302803
186	0xbd5c70ae	-0.053818397
187	0xbd784302	-0.06061078
188	0xbe79743a	-0.24360743
189	0x3e3e5b93	0.1858962
190	0x3e03c31c	0.12867397
191	0x3cf228f0	0.029560536
192	0xbded26ae	-0.11579643
193	0x3e797ad5	0.24363263
194	0xbe042a93	-0.12906866
195	0xbdf8dc3f	-0.121513836
196	0x3de182c8	0.11011273
197	0xbe8459b9	-0.25849703
198	0xbd52877d	-0.051398743
199	0xbcfc2795	-0.030780593
200	0xbe437083	-0.19085889
201	0x3e30a066	0.17248687
202	0xbe4959a6	-0.19663104
203	0xbd6314c2	-0.055439718
204	0x3e6f557e	0.23372456
205	0xbe4ce1a2	-0.20007947
206	0xbdeedf99	-0.116637416
207	0xbe144e26	-0.14482936
208	0xbe4ac1b2	-0.19800451
209	0xbe2846c6	-0.16433248
210	0xbdaaa2de	-0.08331846
211	0xbe0e6230	-0.13904643
212	0xbd2f5cec	-0.042813227
213	0xbe43663a	-0.19081965
214	0x3dd7780c	0.10520944
215	0x3e04b029	0.12957825
216	0x3c99b0b6	0.01876102
217	0xbe4080a5	-0.18799074
218	0xbe64c4c9	-0.22340693
219	0xbce523a0	-0.027971089
220	0xbdad278d	-0.08454809
221	0xbe51c9b4	-0.204871
222	0xbd3e7170	-0.0464949
223	0xbcbf6f07	-0.023368372
224	0xbda735fb	-0.08164593
225	0x3da70bae	0.081565246
226	0x3dd5cc61	0.10439373
227	0xbe0820de	-0.13293788
228	0xbe1f8107	-0.15576564
229	0xbe5f2154	-0.21790057
230	0xbe2134a6	-0.1574274
231	0xbe5a6e90	-0.21331239
232	0xbe6724cf	-0.22572635
233	0xbdad69d1	-0.084674485
234	0x3aa36038	0.0012464589
235	0xbe313497	-0.17305218
236	0xbe06b1d7	-0.13153778
237	0xbe686808	-0.22695935
238	0xbc65e80b	-0.014032374
239	0x3d8b3733	0.06797638
240	0xbe7a43cf	-0.2443993
241	0x3e61f8dd	0.2206759
242	0xbe6eec42	-0.23332313
243	0xbd56c64e	-0.05243521
244	0x3e6bd7c9	0.23031534
245	0x3e49ef56	0.19720206
246	0x3d1556b8	0.036459655
247	0xbde5c73b	-0.11219641
248	0x3e00722f	0.12543558
249	0x3e145417	0.14485203
250	0xbe275533	-0.16341095
251	0xbdf13b97	-0.11778944
252	0xbe2dfffd	-0.16992183
253	0x3cff9639	0.031199561
254	0xbbbccb86	-0.0057615666
255	0x3d84964f	0.064739816

rnn.bias_hh_l0 f4 [384]
0	0xbe24ea85	-0.16105087
1	0xbe217d3a	-0.15770426
2	0xbcaf9574	-0.02143357
3	0xbdd29d4f	-0.102839105
4	0xbe07f4c6	-0.13276967
5	0xbd83d6be	-0.06437443
6	0xbd560ae1	-0.05225647
7	0xbe0e1148	-0.1387378
8	0xbd4645b5	-0.04840632
9	0xbe713e7d	-0.23558994
10	0xbcf7d1ea	-0.030251462
11	0x3c8c1460	0.01709956
12	0x3ce3893f	0.027775405
13	0xbe5cea54	-0.21573764
14	0xbe5c61ea	-0.21521726
15	0xba98002e	-0.0011596733
16	0xbda5d4ed	-0.08097253
17	0xbe8c5b3a	-0.2741335
18	0xbe1b813e	-0.1518602
19	0xbe1009d4	-0.14066249
20	0xbe404fea	-0.18780485
21	0xbe5f4f76	-0.21807656
22	0xbe23b2ba	-0.15986148
23	0xbda277f7	-0.07933038
24	0xbe3a4c61	-0.18193199
25	0xbe4345a3	-0.19069533
26	0xbe8049c0	-0.25056267
27	0xbca89d64	-0.020582862
28	0xbe15d4a1	-0.14631893
29	0xbcf84435	-0.030305961
30	0xbe4fe6fb	-0.20302956
31	0xbe25fb53	-0.16209154
32	0xbdabd59c	-0.08390352
33	0xbe3f40d8	-0.1867708
34	0xbe10ad2d	-0.14128561
35	0x3d6afd52	0.05737049
36	0xbe2629f6	-0.16226944
37	0xbe8b7fd0	-0.2724595
38	0xbbe4b189	-0.0069791717
39	0x3d198b41	0.03748632
40	0xbd665f00	-0.056242943
41	0xbdf634d1	-0.12021793
42	0xbd08cb2a	-0.033396877
43	0xbe414934	-0.18875581
44	0xbe20cf49	-0.15704073
45	0xbe1a91f1	-0.15094735
46	0xbc4184c4	-0.011811439
47	0x3c719668	0.014745332
48	0xbd4d04c1	-0.05005336
49	0xbcebd7f4	-0.028789498
50	0xbdb2db0a	-0.08733185
51	0xbe21e920	-0.15811586
52	0xbd852621	-0.06501413
53	0xbdb06f7e	-0.086150154
54	0x3cc3bb7e	0.023893114
55	0xbe45464b	-0.19265096
56	0xbdf64cef	-0.12026393
57	0xbd0d039f	-0.03442728
58	0xbe4afd3b	-0.19823162
59	0x3b78039b	0.0037843946
60	0xbe75bf17	-0.23998676
61	0x3baa4784	0.0051965136
62	0x3a9a721e	0.0011783277
63	0xbddaf1d7	-0.106906585
64	0xbe6df329	-0.2323729
65	0xbe4cb21c	-0.19989818
66	0xbe8fbb43	-0.28072557
67	0xbe312e4c	-0.17302817
68	0xbc9d93fa	-0.0192356
69	0xbdffd25f	-0.12491297
70	0xbdfb63bc	-0.12274882
71	0xbe190cdb	-0.1494631
72	0xbe460bb8	-0.19340408
73	0xbdd7da0c	-0.10539636
74	0xbe9a61b5	-0.3015267
75	0xbe3d57f7	-0.18490587
76	0xbe657073	-0.22406177
77	0xbe0e4628	-0.1389395
78	0xbdf527cd	-0.11970482
79	0xbdb411ca	-0.087924555
80	0xbdcca6a7	-0.09992724
81	0xbe0bd81b	-0.13656656
82	0xbe18c39b	-0.14918368
83	0xbdc428e6	-0.09578113
84	0x3cd636b2	0.026149128
85	0xbd335dc2	-0.043790586
86	0xbdb95d11	-0.09050954
87	0xbddbbb70	-0.1072911
88	0xbdd0b13c	-0.10190055
89	0xbda5c832	-0.08094825
90	0xbe690a6b	-0.2275788
91	0xbda88195	-0.08227841
92	0xbac45bd0	-0.0014980976
93	0xbe2c0b29	-0.16801132
94	0x3d6579c8	0.056024343
95	0xbe67c966	-0.22635421
96	0xbded607c	-0.115906686
97	0xbe25bcd0	-0.16185308
98	0xbce5ddac	-0.028059803
99	0xbe4b400b	-0.19848649
100	0x3c107fa5	0.008819495
101	0xbcf7f4af	-0.030268041
102	0xbe582825	-0.21109064
103	0xbce4cfc5	-0.027931103
104	0xbe029a22	-0.1275411
105	0xbdb5d5cb	-0.088786684
106	0xbdbeeaaf	-0.09322106
107	0xbe128962	-0.1431022
108	0xbbbfe5ab	-0.005856236
109	0xbe65c427	-0.22438107
110	0xbdf5e0df	-0.120057814
111	0xbcba06e5	-0.022708366
112	0xbe91f861	-0.2850981
113	0xbdf8431d	-0.12122176
114	0xbd9f5ae5	-0.07781009
115	0xbd5336c0	-0.051565886
116	0xbdff0fb3	-0.12454166
117	0xbcdc1926	-0.02686746
118	0x3b7517cf	0.0037398224
119	0xbce52773	-0.027972912
120	0xbe0087bf	-0.12551783
121	0xbca64a43	-0.020299083
122	0xbdeb0971	-0.1147641
123	0x3ca990f1	0.020698996
124	0xbe3eeaab	-0.18644206
125	0xbe1855d9	-0.14876498
126	0xbe534576	-0.20631966
127	0xbda37709	-0.079816885
128	0xbde412db	-0.11136409
129	0xbe6ea46d	-0.23304911
130	0xbd3cac2a	-0.046062626
131	0xbe6f6199	-0.23377074
132	0xbe06f9f8	-0.13181293
133	0xbe2c1d62	-0.16808084
134	0xbdf8032c	-0.1210998
135	0xbe99cfc9	-0.3004134
136	0x3c8d1a58	0.017224476
137	0xbe347abb	-0.17624943
138	0xbcb4118a	-0.02198102
139	0xbe853a3c	-0.26020992
140	0xbd5ee46f	-0.05441707
141	0xbe512c8c	-0.2042715
142	0xbda95aaa	-0.08269246
143	0x3e2772cf	0.1635239
144	0xbe3880bf	-0.18017863
145	0xbe84fde0	-0.2597494
146	0x3d7d9cfb	0.061917286
147	0xbde4c48d	-0.111703016
148	0xbe9fef76	-0.31237382
149	0xbe1464f3	-0.14491634
150	0x3e3ebf6c	0.18627709
151	0x3e1e828b	0.15479486
152	0xbe8c7c44	-0.27438557
153	0xbe55debf	-0.20885752
154	0xbe9c2d5c	-0.30503356
155	0xbe4870de	-0.19574305
156	0xbdea4aa2	-0.11440016
157	0x3d0e38a8	0.034722
158	0xbe5eb099	-0.21747054
159	0xbe74e03f	-0.23913668
160	0xbe612720	-0.21987581
161	0xbdd0898a	-0.101824835
162	0xbdcff020	-0.10153222
163	0x3b88327a	0.004156408
164	0xbe2b3111	-0.16717936
165	0xbdf175c6	-0.117900416
166	0x3e6dde79	0.23229398
167	0x3d63b8c1	0.055596117
168	0xbdd95e55	-0.106136955
169	0xbe17c91c	-0.14822811
170	0xbd835286	-0.064122245
171	0xbe211f9c	-0.15734714
172	0x3dbf58f9	0.09343142
173	0xbeb09542	-0.34488875
174	0x3e404e1c	0.18779796
175	0x3cf5e93d	0.030018443
176	0xbdb1c503	-0.08680155
177	0xbdd1a8ef	-0.102373
178	0xbe49a81d	-0.19693036
179	0x3c1b34ef	0.00947307
180	0x3ddb2dc1	0.10702086
181	0x3d34b557	0.04411825
182	0xbd25ad2a	-0.040448345
183	0xbe25f6c1	-0.1620741
184	0xbd38f905	-0.04515936
185	0xbde466c3	-0.11152413
186	0xbc7c5a8e	-0.015402449
187	0xbd82eafe	-0.063924775
188	0xbe9d70cb	-0.30750117
189	0x3e1f663b	0.15566342
190	0x3e10f5ca	0.14156261
191	0x3e191787	0.14950381
192	0xbe35f6c2	-0.17769912
193	0x3e698166	0.22803268
194	0xbe3395c3	-0.17537598
195	0xbe509a3e	-0.20371339
196	0x3dd70862	0.10499646
197	0xbe3a38fd	-0.18185802
198	0xbe3b08a7	-0.1826502
199	0x39c02793	0.0003665058
200	0xbe5254a3	-0.20540099
201	0x3df638e8	0.12022573
202	0xbe0592ff	-0.13044356
203	0x3c472816	0.012155553
204	0x3e751834	0.23935014
205	0xbe226728	-0.15859663
206	0xbe337402	-0.17524722
207	0xbe01d911	-0.1268046
208	0xbe4af8b6	-0.19821438
209	0xbe6406be	-0.22268197
210	0xbe4a709e	-0.19769523
211	0xbccdbe7a	-0.02511524
212	0xbdc38878	-0.09547514
213	0xbe00fd71	-0.1259668
214	0x3e11cd33	0.14238434
215	0x3cc48826	0.023990702
216	0x3de9f953	0.11424508
217	0xbe1385b3	-0.14406471
218	0xbdb249b9	-0.08705468
219	0xba88072b	-0.0010378113
220	0xbe436b3a	-0.19083872
221	0xbe123325	-0.14277323
222	0xbe1a7045	-0.1508189
223	0xbddf4f8d	-0.10903845
224	0xbd4c972e	-0.049948864
225	0x3d927737	0.07151645
226	0x3d6464cc	0.05576019
227	0xbe266c42	-0.16252235
228	0xbdb16a17	-0.08662813
229	0xbe3b00c5	-0.18262012
230	0xbe28f966	-0.16501388
231	0xbe0d62f4	-0.13807279
232	0xbe50e869	-0.20401157
233	0xbd9171f4	-0.07101813
234	0xbd60bf7e	-0.05487012
235	0xbe4b4fcf	-0.19854663
236	0xbe290896	-0.16507182
237	0xbe029736	-0.12752995
238	0xbc079c2f	-0.008276983
239	0x3e1d65d9	0.15370883
240	0xbe5654f9	-0.20930852
241	0x3de3e864	0.11128309
242	0xbe43e8b7	-0.19131742
243	0x3dd1c5d6	0.10242812
244	0x3e00dd65	0.12584455
245	0x3e26de9b	0.16295855
246	0x3e00fbc1	0.12596036
247	0xbe88029c	-0.2656449
248	0x3de281dd	0.11059926
249	0x3c77d8f9	0.015127414
250	0xbe179a3d	-0.14804931
251	0x3cec21e3	0.028824752
252	0xbdf33aa7	-0.118764214
253	0x3c8afc84	0.016966112
254	0xbddca0e4	-0.10772875
255	0x3d87cb7f	0.06630611

rnn.weight_ih_l1 f4 [384, 128]
0	0x3d49d69a	0.049276926
1	0x3dedac3b	0.11605116
2	0xbd8c22e0	-0.068425894
3	0x3d7bd910	0.061486304
4	0x3d9fce30	0.07802999
5	0x3d166464	0.036716834
6	0xbc65692b	-0.014002125
7	0x3d172b61	0.036906604
8	0xbb603363	-0.0034210316
9	0x3dfeb5a2	0.124369875
10	0x3e51153b	0.20418255
11	0xbc88d959	-0.016705202
12	0xbd7b15b1	-0.061299983
13	0xbdc74bc1	-0.09731246
14	0xbda96eed	-0.082731105
15	0x3e0fcfd5	0.14044125
16	0xbdea7854	-0.11448732
17	0x3d3f34d5	0.046681244
18	0x3be75bcd	0.007060504
19	0xbd402b16	-0.04691609
20	0xbd91d30a	-0.07120331
21	0x3c5a227c	0.013313886
22	0x3d08b190	0.03337246
23	0x3dce1079	0.10061736
24	0xbdc6d081	-0.09707738
25	0xbd827d83	-0.06371596
26	0x3c2481bf	0.0100406995
27	0x3e1964e7	0.14979897
28	0x3e221f22	0.15832189
29	0x3e34b28f	0.1764624
30	0xbd149737	-0.036277022
31	0x3db6cabb	0.089253865
32	0xbc7d59a8	-0.01546327
33	0x3c2ff11a	0.010738635
34	0xbc9dd0a0	-0.01926452
35	0xbba86bec	-0.0051398184
36	0x3de5a472	0.11213006
37	0xbbbd43cc	-0.0057759043
38	0xbe372675	-0.17885764
39	0xbc88ba1f	-0.016690312
40	0xbcbe0480	-0.023195505
41	0xb9a34525	-0.000311413
42	0x3d03ea9d	0.032206167
43	0xbd8f8bf2	-0.07009114
44	0xbdc574fc	-0.096414536
45	0xbddb234c	-0.10700092
46	0xbe2b5f4f	-0.16735576
47	0x3d801d99	0.06255645
48	0x3d9712b0	0.07376611
49	0xbe1c2f4e	-0.1525242
50	0x3dfb4e3b	0.12270781
51	0xbe2dcfb6	-0.16973767
52	0xbe09c31c	-0.13453335
53	0xbc237586	-0.00997675
54	0xbd1a6b9a	-0.037700273
55	0xbc9b7062	-0.018974487
56	0x3e14c68c	0.14528865
57	0x3e1a1681	0.15047647
58	0x3e324b4a	0.17411533
59	0xbd07f0c0	-0.03318858
60	0x3d3f8307	0.046755817
61	0x3ca1f0bd	0.019768113
62	0x3c00e8b2	0.007867979
63	0x3d88f182	0.06686689
64	0x3dc4a578	0.09601873
65	0x3e0005be	0.1250219
66	0xbd0fc332	-0.035098262
67	0x3e320b59	0.17387141
68	0xbdd59d5d	-0.10430405
69	0x3dd0d1b5	0.101962484
70	0xbbee416e	-0.0072709834
71	0x3e231fc7	0.15930091
72	0x3cc0fdd9	0.023558544
73	0xbccbf2b0	-0.024895996
74	0xbd00dd55	-0.03146108
75	0x3d08c60e	0.033392005
76	0xbd51332a	-0.051074184
77	0x3dc03790	0.09385598
78	0xbdf7d090	-0.12100327
79	0x3d161d87	0.036649253
80	0x3d7b3c2b	0.061336678
81	0xbe230add	-0.15922113
82	0x3cc936e9	0.024562316
83	0x3d879474	0.06620112
84	0xbde26a03	-0.110553764
85	0x3dd2223c	0.10260436
86	0x39cf73fc	0.00039568532
87	0xbd9e798f	-0.07738029
88	0xbca249c1	-0.01981056
89	0xbc22cc83	-0.009936455
90	0xbd118303	-0.035525333
91	0xbd1b68af	-0.03794163
92	0x3de75cc0	0.112969875
93	0xbdd033e8	-0.1016615
94	0xbc736fb8	-0.014858179
95	0xbcde9fd5	-0.027175823
96	0xbcf14125	-0.029450009
97	0x3d57f436	0.052723132
98	0xbe233935	-0.15939792
99	0x3ca74883	0.020420318
100	0x3d07c753	0.033149075
101	0x3e0cdf78	0.13757122
102	0xbd6afe61	-0.0573715
103	0xbe3d344d	-0.18476982
104	0xbce0131f	-0.027352868
105	0xbb84e802	-0.004055978
106	0xbe0415e3	-0.12898974
107	0xbd027631	-0.031850997
108	0xbde15980	-0.11003399
109	0x3e0a48d8	0.1350435
110	0xbe693685	-0.22774704
111	0x3e37460a	0.17897812
112	0x3db5be8c	0.088742346
113	0xbdc3d764	-0.09562567
114	0x3e06dc4a	0.13169971
115	0xbde1fad9	-0.110341735
116	0x3df89d6d	0.121394016
117	0xbdaa0ce0	-0.08303237
118	0xbd2e77f0	-0.04259485
119	0xbe037526	-0.12837657
120	0xbc445eb3	-0.011985469
121	0xbdb90f27	-0.09036093
122	0xbdb7f883	-0.08982947
123	0xbe2638f8	-0.1623267
124	0x3db03024	0.08602932
125	0xbe542139	-0.20715798
126	0xbc5d072f	-0.013490482
127	0xbdddb3f2	-0.108253375
128	0xbd30ae21	-0.043134812
129	0xbbcdc775	-0.0062798806
130	0x3ce9c062	0.028534118
131	0x3dc442b5	0.09583036
132	0x3db1d1e7	0.08682614
133	0x3c4d1b9b	0.012518789
134	0xbe0321d1	-0.12805869
135	0x3dc42cb6	0.095788404
136	0x3d97a30a	0.07404144
137	0x3d514fbb	0.051101428
138	0x3e05ac4d	0.13054009
139	0xbcfe7aaa	-0.03106435
140	0xbd4bc4eb	-0.049748342
141	0xbded9623	-0.11600902
142	0x3d51692b	0.051125687
143	0x3dc73d8a	0.097285345
144	0x3bb4efba	0.0055217417
145	0x3d4a6c6b	0.0494198
146	0xbdacc4b0	-0.08435953
147	0xbddf7732	-0.109114066
148	0xbbadbdd6	-0.005302171
149	0x3e0e4d2c	0.13896626
150	0x3e29a87d	0.1656818
151	0x3d4a9aad	0.049463917
152	0x3d09aca1	0.033611897
153	0xbd8996d3	-0.067182206
154	0xbd85bd9e	-0.06530307
155	0x3d84a62a	0.06477006
156	0xbdcb4d6c	-0.099268764
157	0x3e2c79b8	0.16843307
158	0xbd906815	-0.07051102
159	0x3d2f4dbe	0.04279875
160	0xbd9aaf3d	-0.07552955
161	0xbd632170	-0.05545181
162	0x3dfd1269	0.12357027
163	0x3dd0d08f	0.101960294
164	0x3cd32ab3	0.025777197
165	0x3d4c01d8	0.049806446
166	0xbb26d882	-0.0025458639
167	0xbd899f60	-0.067198515
168	0x3c5e5e46	0.013572281
169	0xbdf1fd78	-0.118159235
170	0x3dc2afbc	0.09506175
171	0xbddaaae5	-0.10677127
172	0xbd7425b7	-0.05960628
173	0xbc534ed7	-0.012897215
174	0x3d76f7e3	0.060294997
175	0x3e0f7f03	0.14013295
176	0x3dc89323	0.09793689
177	0xbdf9616b	-0.12176784
178	0x3db62079	0.088929124
179	0xbdcf398a	-0.101183966
180	0xbd56bb96	-0.05242499
181	0x3dbe5f82	0.092955604
182	0xbdef0091	-0.1167003
183	0x3de579d5	0.11204878
184	0x3e2ea3a7	0.17054616
185	0x3c3f6fc3	0.011684361
186	0x3b8260f1	0.0039788415
187	0xbe143d00	-0.14476395
188	0x3e032a24	0.12809044
189	0xbe405fce	-0.18786547
190	0xbd935b1c	-0.07195112
191	0x3dc80e12	0.09768309
192	0x3b8e1a79	0.004336652
193	0x3dce1ef9	0.10064501
194	0x3ce52573	0.027971959
195	0x3ddda531	0.108225234
196	0x3c150c2a	0.009097138
197	0xbcfa6a69	-0.030568318
198	0xbcff459b	-0.03116112
199	0x3dcf3e11	0.1011926
200	0xbdcf89d3	-0.1013371
201	0xbb67bd2f	-0.0035360565
202	0xbc265701	-0.010152579
203	0x3be462d6	0.00696979
204	0x3c82a16b	0.01594611
205	0x3d05d5b1	0.032674495
206	0x3cd9857b	0.026552906
207	0x3d3f862b	0.046758812
208	0xbbebc28e	-0.0071948236
209	0xbddb6aff	-0.10713767
210	0xbcad185b	-0.021129778
211	0xbe087dda	-0.13329259
212	0xbd4a0e2f	-0.049329933
213	0x3bd61b6b	0.00653403
214	0x3da65c4f	0.08123075
215	0x3cc2fb03	0.023801332
216	0x3d8d43f6	0.06897728
217	0x3d8ca1a0	0.06866765
218	0x3e194656	0.14968237
219	0xbde9578f	-0.113936536
220	0xbc8149b7	-0.01578222
221	0xbd962e3e	-0.07333039
222	0xbe02afab	-0.12762325
223	0xbda9d811	-0.082931645
224	0xbdd8393c	-0.105577916
225	0xbc68e3f2	-0.014214503
226	0x3c0f9253	0.008762914
227	0x3d425f6e	0.04745429
228	0x3d465a17	0.04842576
229	0x3d8d14d0	0.06888735
230	0xbd030d77	-0.031995263
231	0xbc685c34	-0.014182139
232	0x3c5b57c7	0.013387627
233	0xbb0f8d41	-0.0021904262
234	0x3a15b780	0.00057112426
235	0x3d3e6e28	0.046491772
236	0xbd74901a	-0.05970774
237	0x3e0801f3	0.13281994
238	0xbd7b824b	-0.061403554
239	0x3e40bdff	0.18822478
240	0xbd543e64	-0.051817313
241	0xbc63dd74	-0.013907779
242	0xbcdf605f	-0.027267633
243	0x3c0c54e2	0.0085651595
244	0x3df2275f	0.11823916
245	0xbe079fee	-0.13244602
246	0xbc392dd0	-0.011302426
247	0xbda72f12	-0.08163275
248	0xbdbe975e	-0.09306215
249	0xbd3f1b0e	-0.04665666
250	0xbc27d2f6	-0.010243168
251	0xbb7f6d0f	-0.0038974916
252	0x3dcfa507	0.10138898
253	0x3e13f62f	0.1444938
254	0x3aed344c	0.0018097251
255	0xbc3225c5	-0.010873263

rnn.weight_hh_l1 f4 [384, 128]
0	0xbd9a4f0b	-0.075346075
1	0xbd29ae24	-0.04142584
2	0x3dc9dba2	0.09856345
3	0x3d05b9bb	0.03264783
4	0xbd6e364e	-0.058157258
5	0xbdeb7580	-0.11497021
6	0xbcaf4006	-0.021392833
7	0x3e1f6e8d	0.15569516
8	0x3daae3c6	0.083442256
9	0x3d8ce550	0.068796754
10	0xbcea1d84	-0.028578527
11	0x3e38f86e	0.18063518
12	0x3e439052	0.19098023
13	0x3e34ce8c	0.17656916
14	0x3e1761e7	0.1478344
15	0x3dd2691d	0.10273955
16	0x3c657629	0.014005222
17	0x3e01cdc3	0.12676148
18	0xbe0b5153	-0.13605241
19	0x3e1ac427	0.15113889
20	0xbe278ae9	-0.16361584
21	0xbdb56c25	-0.088585176
22	0x3dcae9f1	0.09907902
23	0xbd6cc771	-0.05780739
24	0xbdd9988a	-0.10624798
25	0x3e42a987	0.19009982
26	0xbd817420	-0.06320977
27	0x3d5ef39e	0.05443155
28	0x3e021c5f	0.12706135
29	0xbca7ef5b	-0.020499876
30	0x3dccf514	0.100076824
31	0xbc7d4b00	-0.015459776
32	0xbd4891df	-0.04896724
33	0xbdca59a3	-0.09880378
34	0xbd7b3882	-0.061333187
35	0x3cf01712	0.029307876
36	0xbd397604	-0.045278564
37	0xbe0fa4d7	-0.14027725
38	0x3e3648dd	0.17801233
39	0x3dcb0079	0.099121995
40	0xbda0df00	-0.07855034
41	0xb7add9da	-2.0724652e-05
42	0xbd8d3d1d	-0.06896422
43	0xbda6f8e3	-0.0815294
44	0x3cfcd144	0.030861504
45	0xbc941d55	-0.018080393
46	0x3e335040	0.17511082
47	0x3cd959dd	0.026532108
48	0x3e33ae06	0.17546853
49	0xbd5b5147	-0.05354431
50	0xbd2f2bea	-0.04276649
51	0xbe28c835	-0.16482623
52	0xbe46600f	-0.19372581
53	0x3d180ba2	0.03712047
54	0xba2c0334	-0.00065617566
55	0xbd3c7cbc	-0.046017393
56	0x3e3b8bfd	0.1831512
57	0x3e15e8fd	0.14639659
58	0x3e06a67a	0.13149443
59	0xbe455a12	-0.1927264
60	0x3de01f03	0.10943415
61	0xbdab56f6	-0.08366196
62	0x3c40a602	0.011758329
63	0x3d0452d6	0.03230556
64	0xbded359d	-0.115824915
65	0xbb7a6816	-0.0038209013
66	0x3d87646e	0.06610952
67	0x3d5adfdd	0.05343615
68	0x3dea2477	0.11432736
69	0x3db8813a	0.09009023
70	0x3d219de0	0.039457202
71	0xbc6f57c8	-0.014608331
72	0x3c9dfeeb	0.019286593
73	0xbe1f7e3e	-0.15575501
74	0x3e111501	0.14168169
75	0x3e68b9ef	0.22727178
76	0x3d1ea9ef	0.03873628
77	0x3ce1ffcb	0.027587792
78	0xbd8f33f1	-0.06992329
79	0x3de2e6ee	0.110792026
80	0xbd0f130a	-0.034930266
81	0x3d4221c8	0.047395498
82	0x3d8faba0	0.07015157
83	0xba80e5a9	-0.0009834069
84	0x3ddec754	0.108778626
85	0x3dd9e409	0.106391974
86	0x3d476371	0.04867882
87	0xbde113b2	-0.10990085
88	0xbdff2389	-0.1245795
89	0x3d8bb3f7	0.06821435
90	0x3e187220	0.14887285
91	0x3e073ebc	0.13207525
92	0x3cc0f9af	0.023556558
93	0xbd875f14	-0.066099316
94	0x3e0c8b97	0.13725124
95	0x3d9d80e5	0.076906
96	0xbb5d9020	-0.003380783
97	0xbd9bebb5	-0.07613317
98	0x3ce2a831	0.02766809
99	0x3e14f05d	0.14544816
100	0x3dce5736	0.10075228
101	0xbd793358	-0.06083998
102	0x3d4857ec	0.048911974
103	0x3d1108fe	0.035408966
104	0x3d3efafa	0.04662607
105	0x3db2033c	0.08692023
106	0x3bc3cdf7	0.0059754807
107	0xbca3bec1	-0.01998842
108	0x3dc3da62	0.095631376
109	0x3e046f63	0.12933116
110	0x3d73aee3	0.059492957
111	0x3dfa9053	0.12234559
112	0x3dd9ee41	0.106411465
113	0xbde71e0d	-0.112850286
114	0xbdecf05b	-0.11569282
115	0x3bdcdf42	0.0067404816
116	0xbdf30c51	-0.118675835
117	0x3dc494eb	0.09598716
118	0x3e0f0604	0.13967139
119	0x3e20e37a	0.15711775
120	0x3d038481	0.032108787
121	0xbdb97ada	-0.09056635
122	0x3de0d0bf	0.10977315
123	0x3dc6d330	0.097082496
124	0xbdf186fe	-0.11793326
125	0x3c2020c3	0.009773436
126	0x3dd21a88	0.10258967
127	0x3dd519cd	0.10405312
128	0x3dc17598	0.09446257
129	0xbe38ef05	-0.18059929
130	0x3df3c376	0.119025156
131	0xbc7585e7	-0.014985538
132	0x3e5693b7	0.20954786
133	0xbcb8c456	-0.022554558
134	0xbd9ce095	-0.07660023
135	0x3d4d4fd7	0.05012497
136	0x3cba3113	0.022728479
137	0x3ceb2337	0.028703315
138	0x3b8f1057	0.0043659615
139	0x3d89426e	0.067021236
140	0x3e3a3fd3	0.1818841
141	0x3dbe4021	0.09289575
142	0x3da87089	0.082245894
143	0x3e1eb1db	0.15497534
144	0x3e443016	0.19158968
145	0x3df977c9	0.1218105
146	0xbe21a051	-0.15783812
147	0x3d1be1f0	0.038057268
148	0xbd670bb5	-0.05640765
149	0xbdd03b3e	-0.101675496
150	0x3d76c859	0.06024966
151	0xbdb3b890	-0.08775437
152	0xbd33c357	-0.043887462
153	0x3cb01e7f	0.021498917
154	0xbc8756cc	-0.01652088
155	0xbd2fd2dc	-0.0429257
156	0x3d02bab3	0.03191633
157	0xbdb637c2	-0.08897354
158	0x3eb3792e	0.3505339
159	0x3e1c2820	0.15249681
160	0x3e0ed701	0.13949205
161	0xbdfb9ab1	-0.122853644
162	0xbd19a414	-0.037509993
163	0xbd911cfe	-0.07085608
164	0x3d95cf06	0.07314877
165	0xbe0e1a71	-0.13877274
166	0xbd12b738	-0.035819262
167	0x3dedb84a	0.11607416
168	0x3d9b781e	0.0759127
169	0xbdda3438	-0.10654491
170	0xbd4ac326	-0.049502514
171	0xbe00dc16	-0.12583956
172	0x3d49be66	0.049253844
173	0x3dd367ad	0.10322509
174	0x3d2261ca	0.03964404
175	0x3e2f6008	0.17126477
176	0x3df7ee39	0.12105984
177	0xbd6b6cf2	-0.057476945
178	0x3cd689d0	0.026188761
179	0xbd042333	-0.03226013
180	0xbc78c303	-0.015183213
181	0xbcbc39b1	-0.022976728
182	0x3d4eeb83	0.05051757
183	0xbd95325e	-0.072849974
184	0x3cb75310	0.022378474
185	0x3e053d34	0.13011628
186	0x3e09f2b5	0.13471492
187	0xbd5b8371	-0.05359215
188	0x3cd4adbe	0.025961753
189	0xbd959fac	-0.073058456
190	0xbdaeee66	-0.08541565
191	0xbdcd08df	-0.10011458
192	0x3cd8ff0b	0.026488801
193	0xbdd8df7b	-0.105895005
194	0x3dfc1ca6	0.12310152
195	0x3d7314bf	0.059345957
196	0x3e104d96	0.14092097
197	0x3db4ed29	0.08834297
198	0x3de5edbd	0.112269856
199	0xbde83c70	-0.113396525
200	0x3d566e3c	0.05235122
201	0xbd93cae2	-0.07216431
202	0x3da369a0	0.07979131
203	0x3e1d71e4	0.15375477
204	0x3df55ce1	0.11980606
205	0x3d0020e8	0.03128138
206	0xbd523262	-0.05131758
207	0x3e0ef4e6	0.13960609
208	0xbb8d2cd6	-0.0043083234
209	0x3dd5070b	0.10401734
210	0x3dd25a13	0.102710865
211	0x3e09859a	0.13429871
212	0x3e338bea	0.17533842
213	0x3d1e8271	0.038698617
214	0x3d61d07f	0.055130478
215	0xbc182121	-0.009285242
216	0xbd9f1f75	-0.07769672
217	0xbd5b576b	-0.053550165
218	0x3e2338d3	0.15939645
219	0x3d564b23	0.05231775
220	0x3dac7b61	0.0842197
221	0xbd889565	-0.0666912
222	0x3da8049d	0.08204005
223	0xbc0a5372	-0.0084427465
224	0x3d97d1d5	0.07413069
225	0x39b23117	0.0003398738
226	0x3d183afa	0.03716562
227	0x3d192820	0.03739178
228	0x3d7c692f	0.06162375
229	0xbdbf9a94	-0.09355655
230	0x3e2d88ab	0.16946666
231	0xbd0dccd9	-0.034619186
232	0x3e8ad4cb	0.27115473
233	0x3e50da72	0.2039583
234	0x3e112384	0.14173704
235	0xb9ee21ce	-0.00045420084
236	0x3e1eff8d	0.15527172
237	0x3e3e880c	0.18606585
238	0x3dc8002f	0.0976566
239	0xbc76fc1d	-0.015074757
240	0x3d9f447c	0.07776734
241	0xbca2625f	-0.019822298
242	0xbd76defd	-0.060271252
243	0x3d771beb	0.06032936
244	0xbe3fa14e	-0.18713877
245	0x3d7026dd	0.058630813
246	0x3de2dc96	0.1107723
247	0x3e464d7b	0.19365494
248	0xbd9e7f6c	-0.077391475
249	0x3d47abc7	0.048747804
250	0x3e0f4fb1	0.13995244
251	0x3e020b90	0.12699723
252	0x3d773c64	0.060360327
253	0x3ca6b2c1	0.020348908
254	0x3d114aa5	0.035471577
255	0xbc8bee65	-0.017081449

rnn.bias_ih_l1 f4 [384]
0	0xbe3398f9	-0.17538823
1	0xbe6cc847	-0.23123275
2	0xbdd35c27	-0.10320311
3	0xbe903ea2	-0.28172785
4	0xbd7855de	-0.060628764
5	0xbc7dc450	-0.015488699
6	0xbd1b2ca1	-0.03788436
7	0xbc5388ad	-0.012911004
8	0xbdde272a	-0.10847314
9	0xbdc42fdd	-0.09579442
10	0xbe25f1a8	-0.16205466
11	0xbe0e999f	-0.1392579
12	0xbd0bfc8c	-0.034176394
13	0xbc4716f5	-0.0121514695
14	0xbdc93e8e	-0.098263845
15	0xbc71ac01	-0.014750482
16	0xbd7e8e3b	-0.06214736
17	0x3b8ce190	0.00429935
18	0xbe4d55fb	-0.2005233
19	0xbd27e206	-0.040987037
20	0xbe540a99	-0.20707168
21	0xbd95e9f8	-0.073200166
22	0x3d82d050	0.06387389
23	0xbc3168f2	-0.010828244
24	0xbdcd7441	-0.10031939
25	0xbd66be00	-0.056333542
26	0xbdd483e8	-0.103767216
27	0x3d620483	0.055180084
28	0xbe1715a7	-0.14754353
29	0xbe81d61b	-0.25358662
30	0xbdd0db2a	-0.10198052
31	0xbe3b05b2	-0.18263891
32	0xbe2a3335	-0.16621096
33	0xbe5e5114	-0.21710616
34	0x3bf0d9ce	0.007350183
35	0xbdf9f9b6	-0.12205832
36	0xbe07d43c	-0.13264555
37	0xbddfd560	-0.1092937
38	0xbe6bb54c	-0.23018378
39	0xbe042b5f	-0.1290717
40	0xbdd676b0	-0.104718566
41	0xbe24ef3f	-0.1610689
42	0xbd969155	-0.07351939
43	0xbbec2562	-0.007206605
44	0xbe059e72	-0.13048723
45	0xbdacfe0c	-0.08446893
46	0xbdb6510f	-0.089021794
47	0xbd247dee	-0.04015916
48	0xbe137bd7	-0.1440271
49	0xbe946e9c	-0.28990638
50	0xbe0974ac	-0.13423413
51	0xbdbe6e9a	-0.09298439
52	0xbe4b26f5	-0.1983908
53	0xbde724bb	-0.11286303
54	0xbd24ff96	-0.04028281
55	0xbe1e8a83	-0.15482526
56	0xbe37d7ba	-0.17953387
57	0xbe4a13b2	-0.19734076
58	0xbd97f3e6	-0.07419567
59	0xbd8c481d	-0.06849692
60	0x3da8bd1c	0.08239195
61	0xbd04f70e	-0.032462172
62	0xbdee84d4	-0.11646429
63	0x3d0db199	0.0345932
64	0xbda47015	-0.080291905
65	0xbe3c7e10	-0.18407464
66	0xbdfd1789	-0.123580046
67	0xbe3d62d2	-0.18494728
68	0x3ca18095	0.019714633
69	0xbe30c5d0	-0.1726296
70	0xbe194c4b	-0.1497051
71	0x3c47dca0	0.012198597
72	0xbdbd984e	-0.092575654
73	0xbe2a0092	-0.1660178
74	0xbc94b220	-0.018151343
75	0xbdd9be95	-0.10632054
76	0xbd9bd8eb	-0.07609733
77	0xbde6d7c1	-0.112716205
78	0xbe1f1a32	-0.15537336
79	0xbdd5323c	-0.10409972
80	0xbd43a9ea	-0.047769465
81	0xbda4c70f	-0.0804578
82	0xbd14ae88	-0.03629926
83	0xbe38f8a1	-0.18063594
84	0xba8b57c9	-0.001063102
85	0xbe2e0497	-0.16993938
86	0xbda094aa	-0.078408554
87	0xbdbe08c4	-0.09279016
88	0xbe565f9c	-0.2093491
89	0xbd950122	-0.07275607
90	0xbe31a882	-0.17349437
91	0xbdc5d52d	-0.09659801
92	0xbd28cbb0	-0.041209877
93	0xbdf1ab2b	-0.11800226
94	0xbbf5fa3a	-0.007506636
95	0x3d2854ec	0.041096613
96	0xbe36ebb8	-0.17863357
97	0x3c8a1839	0.016857253
98	0xbd895a4e	-0.067066774
99	0xbe0a10d4	-0.13482982
100	0xbd82c547	-0.06385284
101	0xbd0abb42	-0.03386999
102	0xbc8981ed	-0.016785586
103	0xbdf77b02	-0.12084009
104	0xbd5e05aa	-0.05420462
105	0xbd8f41d5	-0.06994978
106	0xbd5cb3a6	-0.053882264
107	0xbd917416	-0.0710222
108	0xbd9bbee5	-0.076047696
109	0xbe0a9d29	-0.13536514
110	0xbdc97284	-0.09836295
111	0xbdeeb47f	-0.11655521
112	0xbce0ceb6	-0.027442317
113	0xbbdb08fe	-0.0066844216
114	0xbde9c0f8	-0.11413759
115	0xbe137d78	-0.14403331
116	0xbd855670	-0.06510627
117	0xbc26692a	-0.010156909
118	0xbe0a1607	-0.13484965
119	0xbd078254	-0.033083275
120	0xbd08a744	-0.033362642
121	0x3b19af2a	0.0023450353
122	0xbd38846c	-0.045048162
123	0xbd6f2c0b	-0.058391612
124	0xbdc586b5	-0.09644834
125	0xbdc68819	-0.09693927
126	0xbdb279e6	-0.087146565
127	0xbdcaaf64	-0.09896734
128	0xbdc47491	-0.09592546
129	0x3ddf1028	0.108917534
130	0xbd511a5d	-0.051050533
131	0x3dbb4c0b	0.091453634
132	0x3d8727d7	0.06599396
133	0x3df3cf72	0.119048014
134	0x3e2e0fea	0.16998258
135	0x3e1d4134	0.15356904
136	0x3d5f2d04	0.05448629
137	0xbdd816e0	-0.10551238
138	0xbe1ae9fb	-0.15128319
139	0x3c24505c	0.010028925
140	0x3e128eb9	0.14312257
141	0x3e436dd4	0.19084865
142	0x3e60fa61	0.21970512
143	0x3d83fbf8	0.064445436
144	0x3ca4a3d8	0.020097658
145	0x3dd42c34	0.103599936
146	0x3cae842a	0.021303255
147	0xbb564538	-0.0032695066
148	0x3ca63b7a	0.020292033
149	0x3cdb1963	0.026745504
150	0x3a40e6ce	0.00073586113
151	0xbdf66461	-0.120308645
152	0xbd39c576	-0.04535433
153	0x3e12b6a1	0.1432748
154	0x3c7a17ca	0.015264461
155	0x3dc9c4a9	0.09851963
156	0x3d1bc3ae	0.03802841
157	0x3d8bd1c7	0.06827121
158	0x3e719bfe	0.23594663
159	0xbcb06795	-0.021533767
160	0x3e0f6d1c	0.14006466
161	0xbe774e61	-0.24150993
162	0x3e080b7d	0.13285632
163	0x3e0a976d	0.13534327
164	0xbcc84994	-0.024449147
165	0xbe0aa322	-0.13538793
166	0x3db5bb20	0.08873582
167	0x3d94b474	0.07260981
168	0x3dc17b1e	0.09447311
169	0x3da50114	0.08056846
170	0x3da7742f	0.08176457
171	0xbcd023b3	-0.025407648
172	0x3e51a01a	0.2047123
173	0x3e77caa2	0.24198392
174	0x3e2a3e64	0.16625363
175	0xbc34bd8e	-0.0110315215
176	0x3d9708c4	0.07374719
177	0x3ccb4e3a	0.024817575
178	0x3e3f92b8	0.18708313
179	0x3cde654b	0.02714791
180	0xbe0226e5	-0.1271015
181	0xbd711d94	-0.0588661
182	0x3dbb1709	0.09135253
183	0xbc87c72e	-0.016574468
184	0x3e528a11	0.2056048
185	0x3ce11653	0.027476465
186	0x3da2712b	0.07931741
187	0x3d39ba6a	0.045343794
188	0x3dac26ee	0.08405863
189	0x3e3bedc7	0.18352424
190	0xbe387684	-0.1801396
191	0x3d2ee2fe	0.042696945
192	0xbd230b6e	-0.039805822
193	0xbe8296f5	-0.25505796
194	0x3e16186e	0.14657757
195	0x3da582a0	0.08081555
196	0x3e2ee336	0.17078862
197	0x3da28200	0.07934952
198	0x3e2b7690	0.16744447
199	0x3deebbfb	0.11656948
200	0xbdd492a5	-0.10379533
201	0x3c6e4978	0.0145438835
202	0xbd9503aa	-0.072760895
203	0x3d07a92f	0.03312033
204	0x3e17032b	0.14747302
205	0x3d3c3d77	0.045957055
206	0x3dfa44c8	0.1222015
207	0x3d8e9c57	0.06963413
208	0x3caa0cd9	0.02075808
209	0x3e5587a9	0.20852531
210	0xbd10111f	-0.035172578
211	0x3d2166e3	0.03940476
212	0x3ea72e7d	0.32652655
213	0x3d854e77	0.065091066
214	0x3e28b3ef	0.16474889
215	0x3d57a4f4	0.052647546
216	0xbc899f29	-0.016799526
217	0x3dfc0430	0.12305486
218	0x3c9fa2e0	0.019486845
219	0x3dc6b755	0.097029366
220	0x3dab4457	0.08362644
221	0xbd43729e	-0.04771673
222	0x3dac9b09	0.08428008
223	0xbb98fa09	-0.0046684784
224	0xbd4ac001	-0.049499515
225	0xbd42574e	-0.04744654
226	0x3d3efca0	0.04662764
227	0x3e3984f0	0.18117118
228	0x3e487c26	0.19578609
229	0x3c8bd271	0.01706812
230	0x3e63b3e7	0.22236596
231	0x3e2f8144	0.17139155
232	0xbc2b1d13	-0.010443944
233	0xbcbe3c3a	-0.023222078
234	0xbda9aa0e	-0.082843885
235	0x3e0ca7d7	0.13735901
236	0xbc1f03c3	-0.009705487
237	0xbe044307	-0.12916194
238	0xbd49b659	-0.049246166
239	0x3e2528b4	0.16128808
240	0x3e98ecd6	0.2986819
241	0x3e15a818	0.14614904
242	0x3c71535e	0.014729349
243	0x3c10bc53	0.0088339625
244	0x3d95f086	0.07321267
245	0x38b03034	8.4013125e-05
246	0x3b89781f	0.0041952278
247	0x3e47677f	0.19473074
248	0x3d2b6408	0.041843444
249	0x3e40b140	0.18817616
250	0xbde81499	-0.11332054
251	0x3cafcd70	0.021460265
252	0xbea51a86	-0.32246798
253	0x3db63f69	0.08898813
254	0xbdb3cdd1	-0.08779491
255	0x3d560e3c	0.05225967
