RNN/saved_models/lstm_model.pt (torch, 801333 bytes, 9 tensors)

rnn.weight_ih_l0 f4 [512, 1]
00000000: 7f75 ba3d fa36 debc 91b1 133e 6ed7 5cbc
00000010: d2ad eb3c 5736 35bc 4aae f93c 41df 4a3c
00000020: ac65 49bc 6816 b33c 2105 663d f3af 983d
00000030: 5cb8 173d 7a64 563c 98ac dabc ae0d 8f3c
00000040: d259 473d 1a98 9d39 bce5 bb3c 4145 9c3d
00000050: c4a1 e03c be04 3fb9 d5a2 233c 6dc0 e33d
00000060: c230 e63d 7435 3e3d 5d1d 823d 4db4 8e3c
00000070: 9d48 103d 4404 483e d6da 5f3d 08b1 5f3d
00000080: 156d 75bd 75f5 12bc 6f1c 423d daaf 093e
00000090: 2f8f c5bd 8179 93bb 56aa 49bd 5230 d93d
000000a0: 6fd1 193e e143 063d 8236 e43d bd53 ac3b
000000b0: 68a4 ddbc 6708 273d 3973 103e 5e61 47bb
000000c0: 50f8 6c3e f7fe 143d 3e77 bf3d b07d 943d
000000d0: a822 793b bc73 ed3b 3209 9cbd fb98 81bd
000000e0: ce1e 463e ac34 873d 92f1 993d 1550 223e
000000f0: 15ea 9cbd 150f 723e f36e ed3d 4188 883d
00000100: aa60 8fbd a85f 123e 1cc7 223d d82a 473b
00000110: 555a cbbb 016f 12bd ea05 ae3a 6fad db3b
00000120: b19e b1bc 8ece 43bc 89cd 4b3d 73df 4d3d
00000130: f287 a13d 6ff0 ef3c d9d5 93bc 5d2c b43d
00000140: 9503 76bd 0e1b 92bc 3832 623d 1ebc 943c
00000150: 568f 91bd 7913 a2bc d59f 0a3e ea54 c1bd
00000160: 2db0 dbbc 7918 a53c 3808 4f3d 94e5 913d
00000170: 7ee2 83bc ece1 1fbd 92f2 27bd c620 4f3d
00000180: 5f24 81bb c4fc 133d e6ac 9bbc e5b0 f4bc
00000190: 4ad8 943d 903f 9a3d 7404 063d 69e7 0cbe
000001a0: 5730 91bc 1103 b6bd 879f 1cbd e4c1 0abd
000001b0: 5641 613e 9565 2d3e 771c 3e3e 9dfa b63d
000001c0: 67d8 423d bad7 81bc b237 f33c 8b5f 263e
000001d0: e555 36be 904c 843d 96f0 2c3c c3b0 39bd
000001e0: 2dfe 433c 5f21 0e3e 19a7 fe3d 9602 683c
000001f0: 8ba4 6abd ae7e 3d3e e41b 3c3e 34cc a63d
00000200: 9a9c 9dbc 89cf 47bd eed5 433c 3b55 d9bc
00000210: c773 0d3d 7e02 17bd 2232 60bc 9832 bbbd
00000220: 6571 5fbd 6b10 6d3d 6a87 9a3d 3b46 2cbd
00000230: 4634 33bc 22cb 08bd da16 0bbe 32a3 04be
00000240: 40c5 85bd a0c7 e6bc 7050 a23d 1500 67bb
00000250: deca b1bb 03c4 033d e064 9fbd 0389 b03d
00000260: 4187 67bd a3c5 8b3d 47c8 943d 4ef4 f93d
00000270: ae85 77bc b468 a03c aad2 6f3d 0eab d63d
00000280: 1c7e debb ffa6 013d eccd e63c dcc6 0e3e
00000290: 6e26 2abe ff21 863d 0b7b 0ebc 6fae 243e
000002a0: 69f8 2a3b 4100 f4bd f591 bc3d 1bae 15ba
000002b0: fe51 36bc 9b15 85bc 165d b03d fe61 cf3c
000002c0: 59c2 3c3e d30b a9bd a5d6 1dbc 5c14 a43d
000002d0: dc9c 593d 80f0 733d 6cac d8bc ee40 6abd
000002e0: 3bcd f23d 3cca 6f3d a9b7 96bd 44fe 063e
000002f0: 2cc2 1f39 97bd d03d 9f72 05bd 483f c23d
00000300: 9aa1 933d 8586 ff3d f434 e7bd 4863 11bd
00000310: be89 9bbd 546e 84bd 23d5 aabd e99e 843c
00000320: 228c d93c 257a 8ebd d375 8ebc 3a52 013b
00000330: 8775 33bc bb81 88bd f5c3 25bc 1fc8 2b3e
00000340: 468d 21bc 6711 d2bd f500 533d d5d5 f4bc
00000350: c297 75bd 6785 fcbd 92d4 bb3d 1fef 9dbc
00000360: 5ee1 523d 2902 6c3c 84db a2bd a119 c33a
00000370: 6ab5 c33d 9bd8 b13d 588b a9ba 8990 60bd
00000380: 12f1 253d 5549 483d 5c4d 30bd 22f1 44bd
00000390: c833 43bd bb4f d13b 25e0 efbc 9dd8 e3bd
000003a0: 5457 2e3d 2a6a ac3c d9de 31bd 3e27 c3bd
000003b0: 2d9d 353e fa93 3d3b 920d 8bbc 1f23 ab3d
000003c0: e0cb e73d 090f dbbc 8da7 17bd 3f15 bf3d
000003d0: a36f 40be 523f f7ba 8769 99bd 58cc 513b
000003e0: eb64 493d 5997 ed3d 9835 043e c92d c63d
000003f0: 3d6a 35bd 71bf 8b3d 0a85 c33d e9c7 763d
0.09104442 -0.027125824 0.14423205 -0.013479097 0.028769407 -0.011060319 0.030478615 0.012382329
-0.012292307 0.02186127 0.056157235 0.07455435 0.037041053 0.013085479 -0.026693627 0.017462578
0.048669644 0.00030058698 0.022936694 0.07630397 0.027420886 -0.00018216946 0.009987553 0.11120687
0.112397686 0.046437696 0.06353257 0.017419958 0.0352255 0.19532877 0.054652058 0.05461219
-0.05991848 -0.008969654 0.047390398 0.13445988 -0.09646451 -0.0045005684 -0.04923471 0.106049195
0.15021299 0.032779578 0.11143209 0.005259006 -0.027055934 0.040779497 0.14106454 -0.0030423026
0.23141599 0.036375966 0.093489155 0.072505355 0.0038015042 0.0072464626 -0.07618941 -0.06328007
0.19347689 0.06601843 0.07516779 0.15850861 -0.07661835 0.23638566 0.115934275 0.06666613
-0.07000859 0.14294302 0.039740667 0.0030390527 -0.006205837 -0.035750393 0.0013276909 0.0067040245
-0.021682115 -0.011951102 0.04975656 0.050261926 0.07887258 0.029289452 -0.018046306 0.08797524
-0.06006201 -0.017835166 0.055223674 0.018156108 -0.07107417 -0.019784676 0.13537534 -0.09440024
-0.026817406 0.020153271 0.050544947 0.07123867 -0.01609921 -0.039033815 -0.041002817 0.050568365
-0.0039411034 0.036129728 -0.019003343 -0.029869506 0.07267816 0.07531655 0.03271909 -0.13760151
-0.017723246 -0.088873036 -0.038238075 -0.033876315 0.2199758 0.16933282 0.18565546 0.089345194
0.04756966 -0.015849937 0.029689644 0.16247384 -0.17806204 0.06459916 0.010555407 -0.04533459
0.011962456 0.13879918 0.12434215 0.014160773 -0.057285827 0.18505356 0.18370014 0.081444174
-0.019239713 -0.048781905 0.01195286 -0.026529899 0.034534242 -0.03686761 -0.013683828 -0.09140509
-0.0545515 0.057876986 0.075453594 -0.042059164 -0.010937756 -0.033396848 -0.13582936 -0.12952879
-0.06531763 -0.02817136 0.079254985 -0.0035247852 -0.005425795 0.032169353 -0.07782912 0.08619883
-0.056525473 0.068248056 0.07264762 0.122048005 -0.015107555 0.019581176 0.058550514 0.10481845
-0.0067899358 0.0316534 0.028174363 0.13943046 -0.16616222 0.06549453 -0.008696328 0.16082166
0.0026088005 -0.11914111 0.092075266 -0.00057098427 -0.011127947 -0.016245654 0.08611505 0.025315281
0.18433513 -0.082542084 -0.009633695 0.08011696 0.05312811 0.05955553 -0.026449405 -0.057190828
0.11855551 0.058542475 -0.07359249 0.13182932 0.00015235756 0.101924114 -0.032580014 0.09484726
0.072085574 0.124768294 -0.11289397 -0.035495073 -0.075946316 -0.06466356 -0.08341434 0.016189056
0.026556078 -0.06956891 -0.017390167 0.0019732849 -0.010953314 -0.06665369 -0.010117521 0.16775559
-0.009860342 -0.102572255 0.051514585 -0.02988712 -0.05995918 -0.12330132 0.09171404 -0.01927906
0.05148446 0.014404812 -0.079520255 0.0014884957 0.09556086 0.08683892 -0.0012935204 -0.05482534
0.040513106 0.04889806 -0.043042526 -0.048081525 -0.047656804 0.0063876784 -0.029281685 -0.111253
0.04256375 0.021046717 -0.043425415 -0.09528969 0.17735739 0.0028927312 -0.016974244 0.08356308
0.11318183 -0.026740568 -0.037025023 0.09330224 -0.18792586 -0.0018863475 -0.07490831 0.0032012668
0.04916851 0.11601133 0.1291107 0.096767016 -0.04429077 0.06823624 0.095468596 0.060249243

rnn.weight_hh_l0 f4 [512, 128]
00000000: abeb 6d3d f56b 853c a5c9 453d e68f acbd
00000010: 7505 c13d c6e0 b63b be59 9c3d 3526 023c
00000020: 11a1 eb3c 602e b1bd ed20 703d 649b 093d
00000030: 0960 80bd e62a 993c cd94 3b3c d546 d3bc
00000040: 2faa 81bd b7be 53bc 0379 9dbd 8091 0dbd
00000050: a320 6cbc d118 653d 12f3 58bc e2fc 03bc
00000060: 3022 b13d 59f4 f53c e133 9ebd 33e4 2c3d
00000070: b926 a8bd e2ea b73d 50fa 09bd 053c 033d
00000080: ffca 683d bb84 62bd e3e4 8f3c 7b73 c73d
00000090: f8c5 f4bd ed4c 143c 642a 68bc fda8 84bd
000000a0: 5dd1 33bc a349 5b3b ccd9 5f3c cc77 8abd
000000b0: d481 78bd 85d1 053c bb30 e13d 3e71 d4bc
000000c0: 0958 7ebc cf4b 0b3c 8d5b 513d f18a 1c3d
000000d0: b471 833d a581 ab3b 3adc 3dbd abc8 e0bb
000000e0: 0113 f33d e9bb db3c 0275 a43d f60b 813d
000000f0: f7d4 843c 4e82 b73d 6351 5fbd 80d2 bcbd
00000100: 926b 56bd 8e96 cc3d d4bd bbbd ebe7 8e3d
00000110: 6d89 923c 8a2c 843d 26d0 113d b3ed edbb
00000120: ec93 8fbd cfcb 243c b924 973c 4515 01bc
00000130: 09f7 48bb e100 40bb 892c d53c 16c6 ffbd
00000140: 9559 bfbc 1c99 dcbd 026f 09bd 305b 8abd
00000150: ce39 cbbb 7ee9 3b3a 5984 52bd bfbd 8b3d
00000160: 265a c0bd a650 11bd ac11 d0ba 6f85 32bd
00000170: f242 6abc 8d38 fa3c 59c5 99bd 953c bc3c
00000180: aaed 7a3d be09 94bd e951 1bbd ecda 8a3d
00000190: cc04 6d3b 6a6f bb3c e344 f1bc a3cb 943c
000001a0: 6988 d33d fdc2 603c b821 5e3d 935c 2f3d
000001b0: 4179 34bc 1390 6abd 45ea 5bbd 0b6f a3bc
000001c0: 7159 22bd 99f1 cb3d 2778 0eba dbcb bf3d
000001d0: 1b11 193e b815 483c df93 f63d ebf4 edbc
000001e0: 28a1 38bd f2c7 3fbd 889f 213d 2ffe 8abd
000001f0: 1cae e7bc 586c 863d f065 bdbd 281b db3c
00000200: 1793 9a3d b16d 96bd bab5 babc ef07 293d
00000210: de84 c3bb 4e3f 3d3d 4827 83bd 2ecd 913d
00000220: 15bf be3c d361 023d 03b9 41bd 10d5 c13c
00000230: b109 a73d ecc9 b8bd a5fe a63d 1c72 653c
00000240: d93a a2bc 7b8b 2fbd 4ef4 553d 93d6 e4bd
00000250: 1b82 983d 9597 b13d 01e0 2a3d 6191 17bd
00000260: cd65 a2bd 5693 123d 8852 88bb f030 7d3d
00000270: cfae b5bd 452a e93d fb05 13bc 2617 35bd
00000280: 1679 c2bd 00f2 f6bc 0443 81bc e96f e73d
00000290: 1112 23bc 2f89 183d ec23 faba c0da 673c
000002a0: 9595 893d 45d1 243d cc60 343d 6953 263d
000002b0: a3bd 3bbd ab38 0bbd e031 c83d 3799 663d
000002c0: 3c39 a13c 5b27 d73c fef5 3039 9520 6c3b
000002d0: 8d9e 4b3c b082 1ebd 5033 b23b 9694 92bd
000002e0: 6b00 083b 06ef 8dbd 71af 8ebc 6282 7e3d
000002f0: 2067 b4bb 7df6 6f3d bce2 91bd c08f b6bd
00000300: 15ae 213b 728f 88bd 22c8 09bc 3294 47bd
00000310: 14ae 573d fb1b a2bd 50ea 4d3c bee3 1c3d
00000320: 97a7 f3bb 5dab c23d b279 30bd adb5 393d
00000330: 514b 22bc f9a0 44bd 1fea 75bd 4b29 f2bd
00000340: 74b4 5abc 20a5 383d 9bc9 903d 6919 a3bb
00000350: 9415 20bd 9e01 5a3d cdec c3bd f78a 95bd
00000360: d003 dbbc a7ec 8a3d 411d 2f3d 5975 a43d
00000370: 9552 40bd 01b8 813d 5e52 8c3c bc4b ca3b
00000380: ec3b 293d d6f9 d8bd 6eed a0bb 100d bd3c
00000390: 5bd8 a2bd 1325 0a3c 9e92 8bbc 1dc1 de3d
000003a0: 788b 5dbd fe48 393c 525f c63b fd47 9ebd
000003b0: 6ec4 1fbe 490b 82bd 85b9 24bd cc61 37bd
000003c0: 4563 a23d 54c7 803d e7f1 66bd db0c 323c
000003d0: 4078 febc 0deb a63c 086a 9dbd f9c2 143c
000003e0: 35d4 063d c0d0 043c 0433 03bb 1f6d 0e3d
000003f0: ed9f 7e3d 8c58 d9bd ebbc 8fbd cd54 423d
0.05808608 0.01628683 0.048288006 -0.08425884 0.09424869 0.0055809943 0.076343045 0.00794368
0.028763326 -0.086514235 0.05862515 0.033595458 -0.06268317 0.018697213 0.011449051 -0.025790611
-0.06331288 -0.012923888 -0.07689097 -0.034562588 -0.014412078 0.05593187 -0.013241546 -0.008055897
0.08649099 0.03002374 -0.07724739 0.042209815 -0.08210511 0.08980347 -0.033685982 0.03203966
0.056834217 -0.055302363 0.017565196 0.09738823 -0.11951822 0.009051544 -0.014170263 -0.064775445
-0.010975209 0.003346064 0.013662767 -0.06761131 -0.06067069 0.008167629 0.10995623 -0.025932904
-0.015523919 0.008501961 0.0511127 0.038218442 0.064181715 0.0052339607 -0.046352603 -0.006859859
0.11868859 0.026823001 0.0803013 0.063011095 0.01621483 0.089604005 -0.054520976 -0.09219837
-0.05234868 0.099896535 -0.09167066 0.069778286 0.017887795 0.06453808 0.035598896 -0.007261002
-0.07010636 0.010058357 0.018450128 -0.007878606 -0.0030664823 -0.00292974 0.026022213 -0.12488954
-0.023358146 -0.10771391 -0.03355313 -0.06755674 -0.006201959 0.0007168277 -0.051395748 0.068233006
-0.093921944 -0.035477303 -0.0015874407 -0.043584283 -0.014298188 0.030544544 -0.07508344 0.022978107
0.06126181 -0.07228421 -0.037919912 0.06780037 0.003616619 0.022880275 -0.029451793 0.018163508
0.103287525 0.013718364 0.054231375 0.042812895 -0.011015237 -0.057266306 -0.053690214 -0.01995041
-0.03963608 0.099581905 -0.0005434774 0.09365054 0.14947931 0.012212209 0.12039923 -0.02904745
-0.045075566 -0.046821542 0.03945878 -0.06786763 -0.028281264 0.06563634 -0.09247959 0.026746348
0.075475864 -0.07345141 -0.022791732 0.04126733 -0.0059667667 0.04620295 -0.06403977 0.07119213
0.023284474 0.031831574 -0.04729558 0.023661166 0.08156145 -0.090228885 0.08154038 0.014004257
-0.019803451 -0.04285763 0.05223494 -0.11173739 0.07446691 0.0867149 0.041717533 -0.03700388
-0.07929573 0.03578504 -0.004160229 0.06181425 -0.08871233 0.113850154 -0.008973594 -0.04421153
-0.094957516 -0.030144691 -0.015779026 0.11300642 -0.009953038 0.037240203 -0.0019084192 0.014151275
0.06717984 0.040238637 0.044037625 0.04060689 -0.04583515 -0.03398959 0.09775138 0.05629846
0.019680612 0.026263883 0.00016876307 0.0036030163 0.012427938 -0.038698852 0.005438246 -0.07157247
0.0020752202 -0.06930356 -0.017417641 0.06213606 -0.0055054575 0.05858468 -0.07123324 -0.08914137
0.0024670411 -0.06667985 -0.008409532 -0.048725314 0.05265625 -0.07915493 0.0125680715 0.03830313
-0.0074357498 0.09505341 -0.043084808 0.045339275 -0.009905652 -0.048005078 -0.06003773 -0.11824282
-0.013348687 0.04507935 0.07069703 -0.0049773944 -0.03908308 0.0532242 -0.095666505 -0.07301896
-0.026735216 0.06783419 0.042752508 0.08030195 -0.046953756 0.06333924 0.01712912 0.006173579
0.04131691 -0.105945274 -0.0049111163 0.023077518 -0.07951423 0.008431691 -0.017037686 0.10876677
-0.054088086 0.011308907 0.0060538435 -0.077285744 -0.15602276 -0.06349809 -0.040215988 -0.044771
0.079290904 0.06288019 -0.05638304 0.010867323 -0.031063199 0.020375753 -0.076862395 0.009079688
0.03291722 0.0081064105 -0.0020019421 0.034772035 0.062164236 -0.10612592 -0.07018455 0.047444154

rnn.bias_ih_l0 f4 [512]
00000000: c889 9c3d d76f 663c 7097 d23c 75c5 4abd
00000010: 4133 cc3c 5291 1bbd 01a0 ac3d 337d 213d
00000020: 686a 873d f01b 64bd ce6e 4dbd ae50 5cbc
00000030: 702d 713d 354f 28bc c0ce 653d 1940 4cbc
00000040: 83bc dabc aad6 eebc e3a6 1bbc 546b b6bd
00000050: 1e5d 3a3d 6315 1abd 3cae 6f3c 4267 37bb
00000060: a43e f9bc e9ea c43b e879 ebbd 8bbc 873d
00000070: ed1e ae3b 72b8 b5bd 10db 5dbd a668 67bd
00000080: ad90 0bbd 94b9 cbbd c50a d2bd f76f 8c3d
00000090: 7bf4 a1bd 3d57 92bd 404f e6bd 4128 523b
000000a0: f49f 0ebd 1e53 843d de88 aa3d 2e3e 93bd
000000b0: 4037 9a3c b67b 0e3d dd70 5abb 5997 a9bd
000000c0: 662a da3d 53a4 a03c fa67 bfbc d5e2 ea3c
000000d0: bb9e 2c3d f488 b6bc d837 893d a9d1 d8bd
000000e0: 3fbf 303b 3483 483d 02f2 753d 54e4 343c
000000f0: 5c9b 88bc 3107 653d ff9b dbbc 4058 9d3c
00000100: a2fd b9bd b57c 133d f19f 57b9 8b64 a6bd
00000110: 60a9 d53c 72da 803c a42b 933d d16f e7bc
00000120: 94ba c5bc 3288 d5bc f70c fbbd 006d acbd
00000130: 3f6f c23d bc8a a3bd 2817 6ebc 2a44 37bd
00000140: a649 803d 4541 6cbc 1091 883d 3064 b43b
00000150: 152c 42bd 83bc a1bd ddb5 9ebb e865 0ebe
00000160: ed68 95bd d41a ff3c fef9 ed3c 2737 a73c
00000170: f1ee 68b9 41d4 09bd 1718 cbbd a7b5 7bbd
00000180: f9c1 97bb f647 bb3d 6529 533d 1c9f 6e3d
00000190: 627e 2fbd 9e3e 79bd 6acc 60bd 87a0 dcbd
000001a0: 6a57 3bbd fdba cbbd 7bdf 0b3d 0f2e 8c3d
000001b0: 42f2 bdbb c125 fdbc bda8 073e 37e0 733d
000001c0: 8695 e6ba 915c 9ebc b849 313d 733a d8bc
000001d0: f8bb a0bc 8690 9e3d 6e04 8c3b f5cb ae3c
000001e0: b5cf 0ebd ccae 3ebd 1531 71bd de66 833d
000001f0: 548d 08bd 9547 ba3d 773b 48bd 0060 953d
00000200: a848 bcbc 3960 30bd 1c7e 5dbd 5e73 f1bc
00000210: df0f 1d3d ec3f 6dbd 856a 873d 898c 5a3c
00000220: c918 723d 218e 71bc 3642 49bd 4abd 2ebd
00000230: ec6e 603c 12de 943d 0ddb d7bc 4a4a bbbd
00000240: 23b4 c4bd 37ea b73c b5cc f9bc f7c3 79bd
00000250: 39b8 20bd f31a 71bd acd8 82bd 3645 8ebd
00000260: fa0f 5cbd dcaa 5b3d 5c7c dbbd 9ebe acba
00000270: 5768 68bc a46a f7bd 8283 543d 6e0e d0bd
00000280: 4adc 563d a322 cfbc 0faf 4b3c 409a 653d
00000290: f56b 85bd 971f debd f80b 68bd c402 60bd
000002a0: 9b03 30bd 840e 15bd 537a d0bd d857 ebbd
000002b0: 7592 bfbd fbe6 17bd 7ae2 633d 9191 1bbd
000002c0: 80e0 43bd 7325 0abd b120 babd 732e 8e3c
000002d0: 0d52 7dbc af1f 91bd 7eec 843d 40e0 113d
000002e0: 5b6d febd db25 413d 4c63 16bd 6518 3c3d
000002f0: 4826 e6bd daaf 9dbb 1b44 46bd 903d 91bd
00000300: a98a 503d f382 a93b e050 86bd 324e d7bd
00000310: a77e 9cbd c064 8c3d 4c7c 94bd a782 c1bd
00000320: 4d18 8ebc cff4 0bbd f164 0e3c 0b08 cbbd
00000330: 0146 c5ba 1ceb a2bd 6830 39bd dd61 193c
00000340: c085 b5bd 054e 6abd 00b3 36bd da6f 103d
00000350: 6058 e6bc 7143 ddbd a105 b2bc a146 abbd
00000360: 280f 8c3d eefe 0f3a f36f 6ebd cc16 fabc
00000370: 5b1d 9b3d 9eb5 78bd 62bd 00be a71c dabd
00000380: 1ebc 48bd f7c1 36bc 08fd 74bd 4aab 843d
00000390: 8877 91bd 2d0a 84bd f76b c7bd de5f 20bd
000003a0: b47e d5bd c3b9 7cbc e9d5 17bd 5ceb 0ebb
000003b0: fd93 a9bd 422e 57bd 7f92 2a3d 80e4 283b
000003c0: bd5e 033d 97df b1bd 1656 043d 3fe8 953c
000003d0: 19a8 a9bc 2611 ebbc b062 f23c 2d60 d5bc
000003e0: f4b4 183d 5339 e6bd 5176 02bd 439d 95bc
000003f0: 229f 483d b63f 0e3d 725c e93c 7147 3abd
0.07643467 0.014064751 0.025706977 -0.049504716 0.024926784 -0.037980385 0.08428956 0.03942604
0.06612092 -0.055690706 -0.0501545 -0.01344697 0.058881223 -0.010272791 0.056105375 -0.012466454
-0.026701218 -0.029155094 -0.009500238 -0.0890719 0.04549896 -0.037618052 0.014628943 -0.002798513
-0.030425377 0.006009449 -0.11497861 0.066277586 0.0053137452 -0.08873071 -0.054163992 -0.056496285
-0.03407352 -0.099475056 -0.102559604 0.06857293 -0.07907959 -0.07145546 -0.112455845 0.003206745
-0.034820512 0.06461166 0.083268866 -0.07189594 0.018825173 0.03478595 -0.0033331432 -0.082808204
0.10652618 0.019609606 -0.02336501 0.028672615 0.042143565 -0.022282101 0.067001045 -0.105868645
0.002696946 0.04895325 0.06004525 0.011040766 -0.016675644 0.05591506 -0.026807783 0.01920712
-0.0908158 0.0360076 -0.0002056358 -0.08124646 0.02608174 0.015729163 0.07186058 -0.02825156
-0.024136819 -0.02606592 -0.12258332 -0.084192276 0.09493875 -0.07985446 -0.014531888 -0.04474274
0.06264047 -0.014419858 0.066682935 0.0055051073 -0.04740532 -0.07897284 -0.004843457 -0.13906062
-0.07295404 0.031140722 0.02904987 0.02041204 -0.00022214257 -0.033649687 -0.09916704 -0.061452534
-0.0046312776 0.09144585 0.05155315 0.058257207 -0.042845137 -0.060850732 -0.054882444 -0.10772806
-0.04573766 -0.099477746 0.034148674 0.068447225 -0.0057967016 -0.030901792 0.13247962 0.05954
-0.0017592169 -0.019331248 0.043283194 -0.026395058 -0.01962088 0.077424094 0.004272989 0.021337489
-0.034866054 -0.046553418 -0.0588847 0.06416105 -0.033337906 0.090956844 -0.048884835 0.07293701
-0.022983864 -0.043060515 -0.054075345 -0.029473957 0.038345214 -0.05792229 0.06612114 0.01333917
0.05910567 -0.014743359 -0.04913541 -0.04266099 0.013698321 0.07268919 -0.026349569 -0.09145029
-0.09604671 0.02245055 -0.03049312 -0.060977902 -0.03923819 -0.05886359 -0.06388983 -0.06946795
-0.053726174 0.05362974 -0.10717079 -0.0013179367 -0.014185033 -0.12080887 0.051883228 -0.10159002
0.052456178 -0.02528507 0.012431874 0.056055307 -0.06514732 -0.10845869 -0.05665204 -0.054690138
-0.04297219 -0.036390796 -0.101795815 -0.11491364 -0.09354106 -0.037085515 0.055635907 -0.03798062
-0.04782152 -0.03372712 -0.09088267 0.017356133 -0.015461457 -0.07086121 0.0649042 0.035614252
-0.12423202 0.047155242 -0.03671579 0.045921702 -0.1123777 -0.004812223 -0.048404794 -0.0709182
0.050913487 0.005173081 -0.065583944 -0.105129614 -0.076413445 0.06855154 -0.0725027 -0.09448748
-0.017345572 -0.034169015 0.0086910585 -0.099136434 -0.001505077 -0.07955 -0.04521218 0.009361711
-0.088634014 -0.05720331 -0.0446043 0.03526292 -0.028118312 -0.10803879 -0.0217312 -0.08363081
0.06838828 0.00054930046 -0.05821223 -0.030528449 0.075739585 -0.06072008 -0.12572244 -0.10649996
-0.049007528 -0.011154643 -0.059811622 0.06477983 -0.07102877 -0.064472534 -0.097373895 -0.039153926
-0.10424557 -0.015425148 -0.037069235 -0.0021807766 -0.0828018 -0.05253435 0.041643616 0.0025770962
0.03207277 -0.086852245 0.03230866 0.01829922 -0.020710038 -0.0286947 0.029588073 -0.026046837
0.037281945 -0.112414025 -0.031851117 -0.018263465 0.048979886 0.03472873 0.028486464 -0.045478288

rnn.bias_hh_l0 f4 [512]
00000000: 3c04 a83d 6b6b 163c 2373 173d 999e 013d
00000010: 2d53 1cbd 83f1 aabc 7f27 34bd 3a28 873d
00000020: 8227 c1bc 69a5 e93c d0ab 243d 397c b9bd
00000030: 5cd0 67bd 0d4e 113d 8ee5 74bd 71df ccbd
00000040: 9987 59bd d6ad 2e3d bd40 943c 4a52 ca3c
00000050: ff89 dabd 1384 62bd 04b5 b2bd 5e4f d3bd
00000060: 7c10 e83d 0997 53bc 6824 633c c8a4 05bd
00000070: 47cf 80bc dc03 3bbc a4f9 11bd e1f1 74bc
00000080: 3c2d 05bd d98e 2e3c 430f 95bd 5671 393d
00000090: 2ee4 ea3b 797f 003d 7418 fbbd 9b14 3b3b
000000a0: 8543 8c3c 1c74 273d f45c 223d 120d cdbd
000000b0: 2f9a ba3b 3d92 303d 225d c83d 3357 8dbd
000000c0: 388c 163d 7b9b 9abd 3a9b 46bd dc45 923d
000000d0: ad75 3fbc d472 d3bd 3d0f 4dbd 3126 f7bd
000000e0: 2982 113c 5115 46bc 1881 1dbd 5d71 843b
000000f0: 9c1c 983c 9d81 fd3c 7d65 2fbd 38ba 3fbc
00000100: 065d 413d 452d bdbc 3452 6ebc e7bc d7bc
00000110: c182 2bbd 829f 203b d565 37bd 403d c13d
00000120: d3cf e1bd 9ba9 1ebd a430 babc 494e 583c
00000130: 544b 083e 7f0b d93b a556 92bd 4844 fe3c
00000140: 3b1d 9d3c 7760 a73d bb4f fa3a 3207 ddbb
00000150: 3333 8b3d f595 ba3c 7550 6d3c 7f2f 17bd
00000160: fda5 8ebd 8af7 25bb 01a5 a1bd 5ff5 81bd
00000170: e4bb a1ba fcd1 a3bd f58d fabc 8405 2bbd
00000180: d93a 91bb 5dd7 f0bb 92dd 52bd 66ec d6bd
00000190: 4ee8 c0bd bd20 83bd 843c 88bd e7dd ccbd
000001a0: 611e 7c3c 5fb0 00bd e3ce 13bd c587 abbc
000001b0: d5c8 a0bd 61b5 95bd 5edb b8bc 01a4 3f3d
000001c0: 8c5f 613d e46d 993d a9fb 93bd 4e96 9dbd
000001d0: 8217 9fbd 13a1 82bd 7ef8 263c 7db4 c0bd
000001e0: 62bc 8e3d 7c56 913d 7fa2 893c 599e 16bd
000001f0: aa6f d2bb 9d2f 943d 3fa3 8bbd 96f6 e1bc
00000200: de24 013d d954 81bd b966 cdbc 3c9f 953c
00000210: 8b33 913d eedf dabc 219c 30bd 7432 cbbd
00000220: 23da e7bc 47f8 0cbd bfe7 e0bc 7811 283c
00000230: 6cdf 263d 058b 773c 5121 f5bd 6efd 7cbd
00000240: d0de 75bd b34b 83bd 3ec8 7e3d 1055 343c
00000250: dfb2 2f3c b511 553d 6af3 48bd ceea 88bd
00000260: 4ff1 a7bd 662c cdbd ffe4 cc3b 30f3 6ebd
00000270: c582 9f3d 1561 0bbe bf95 bfbd 7d20 a3bc
00000280: 3cc7 283d 94d6 e9bd ea29 76bd dbcd 07bd
00000290: 165e 92bd 209d 8fbc fd2e 00be 9fde 10bd
000002a0: 73da 273c 4bca c93b 3161 803d 084a 183c
000002b0: 613f 233d bc20 d6bb 73ab ccbd d2e2 79bc
000002c0: 722c b1bd 2ba6 473d 66ba 21bd 7197 0a3d
000002d0: 0b26 8abd b466 bbbd 3474 35bc 4881 1d3d
000002e0: d709 9bbd 3ac7 33bd eb7f d93c 562d e1bd
000002f0: 78af bcbd 4137 46bc 7402 c3bc 97e3 8bbd
00000300: aac1 c6bd 00ba 493a 1725 5dbd 0cd1 8b3d
00000310: fe93 60bd 1cbe b73a c9d8 203d e054 34bc
00000320: 7c24 f6bd f5ab 13bd aa51 08bd 933b a6bd
00000330: c239 f2bb 18ec 8b3c 0ebe cf3c 5d9e 6fbd
00000340: 26e8 563d 25a2 e9bb e004 eb3c 26db 53bd
00000350: 5c69 cbbd 6e92 49bc 77de 9bbb df82 c6bd
00000360: 775e f13c 6f22 5fbb 689a 863d 804d 463d
00000370: ada8 f3bc fcf4 d9bd 8e1e 00bd 9bd9 dcbd
00000380: 5497 96bd dbee 903d 1c7b b83b d02d 543c
00000390: f0eb a43b 2859 6cbd b636 8d3c b277 85bd
000003a0: e4e5 dfbc b0cb b3bd f89f 5bbd 0f91 eebd
000003b0: 6931 783c 24dc dfbd 1b99 04bc 2db7 3ebd
000003c0: 43a0 1ebd 5645 713c 4bec abbc 5f15 f33c
000003d0: c36b a93c 6351 0f3c 44f7 17bd eaef b1bd
000003e0: adce 6ebb 8bae 1c3d 9722 573d 3807 633d
000003f0: 00cf 8ebd 32f5 92bd 33da 88bd 1be7 a3bd
0.08203933 0.009180884 0.036975037 0.03164539 -0.03816526 -0.020867115 -0.04398298 0.065994695
-0.02357841 0.028521257 0.040202916 -0.09056897 -0.05659519 0.035474826 -0.059789233 -0.100035556
-0.05310783 0.04264625 0.018097276 0.024697442 -0.10670852 -0.055301737 -0.08725932 -0.103178725
0.11331269 -0.012914428 0.01386366 -0.03262785 -0.015723838 -0.011414494 -0.035638466 -0.014950247
-0.032513842 0.010654175 -0.072783016 0.0452741 0.0071683144 0.031371567 -0.122605234 0.0028546217
0.01712204 0.040882215 0.03963943 -0.100122586 0.0056946496 0.043108214 0.09783389 -0.069013976
0.036754817 -0.07549187 -0.04848788 0.07142231 -0.011685771 -0.10324636 -0.05006336 -0.12067831
0.00888113 -0.012090043 -0.03845319 0.0040418343 0.01856833 0.030945593 -0.042821396 -0.011702113
0.047207855 -0.023092875 -0.014545966 -0.026335193 -0.041872744 0.0024509137 -0.04477485 0.09435511
-0.110259674 -0.038735967 -0.022728272 0.013202258 0.13309985 0.006623685 -0.071454324 0.031038418
0.019178977 0.08172696 0.0019097248 -0.0067452425 0.06796875 0.022776583 0.0144845145 -0.03691053
-0.069652535 -0.0025324547 -0.078928 -0.06345629 -0.0012339321 -0.07999036 -0.030585269 -0.041753307
-0.004432064 -0.007349892 -0.051480837 -0.10494308 -0.094193086 -0.06402729 -0.066521674 -0.10003262
0.015388102 -0.0314182 -0.036085974 -0.020938763 -0.07850806 -0.07309986 -0.02256554 0.046787266
0.05502276 0.07491663 -0.07225735 -0.07694684 -0.07768156 -0.06378379 0.010191081 -0.094094254
0.06969525 0.07096574 0.016801117 -0.036772106 -0.006422003 0.07235644 -0.06818246 -0.027583402
0.0315293 -0.063150115 -0.025073396 0.018264405 0.07089909 -0.026718106 -0.043117646 -0.099217325
-0.028302258 -0.034416463 -0.027454255 0.010258071 0.040740415 0.015108828 -0.11969245 -0.061765127
-0.060026944 -0.06410923 0.062202685 0.011006609 0.010723799 0.05201884 -0.049060263 -0.066854104
-0.08200323 -0.10018234 0.0062528844 -0.05833739 0.07788614 -0.13611253 -0.09354734 -0.019912953
0.04120563 -0.11417881 -0.060098566 -0.033155303 -0.07146852 -0.017530978 -0.12517925 -0.035368558
0.010244953 0.0061581484 0.06268538 0.009294994 0.039855365 -0.006534664 -0.09993639 -0.015251832
-0.086510554 0.048742454 -0.039484404 0.033835832 -0.06745537 -0.091504484 -0.011075068 0.03845337
-0.07570236 -0.04389117 0.026550254 -0.10994975 -0.092131555 -0.0120981345 -0.02380488 -0.06830519
-0.09704907 0.00076952577 -0.05399045 0.06826982 -0.054828636 0.0014018449 0.039269242 -0.011006564
-0.120186776 -0.036052663 -0.033281006 -0.08116832 -0.007392139 0.017080352 0.02535918 -0.058500636
0.052467488 -0.007129925 0.028688848 -0.051722668 -0.09932205 -0.012302978 -0.0047567445 -0.096929304
0.02946399 -0.0034047624 0.065724194 0.048413754 -0.029743517 -0.1064243 -0.03127914 -0.107836924
-0.07353082 0.07076808 0.00562991 0.012950376 0.0050330088 -0.057702214 0.017238002 -0.06516971
-0.0273313 -0.08779085 -0.053619355 -0.116487615 0.015148499 -0.1093066 -0.008093144 -0.04656141
-0.038727056 0.014726004 -0.020986697 0.029673276 0.020681268 0.008747431 -0.037101045 -0.08688338
-0.0036439106 0.038252395 0.05252322 0.055426806 -0.06973076 -0.071756735 -0.06682243 -0.08003064

rnn.weight_ih_l1 f4 [512, 128]
00000000: 517f b4bd 9ff8 08bd 316d 84bd fa3f 69bb
00000010: 2ab5 133d 3439 07be 0d08 8ebd b96f e83a
00000020: 30c2 bdbd 6122 1bbd cbe8 62bd 007f 08bd
00000030: 397a d9bc d6ff 983d bff7 423d 5e8f 69bc
00000040: fd5e 07bd 87d4 e83c 0a9e 763d ab18 26bd
00000050: affa 1ebd 2ccb 12bd 4fbe 8bbd dd30 8bbd
00000060: 5af3 b6bd 0866 01bc 360e 073d 51c3 3cba
00000070: c043 92bd 2208 edbc 10bc 723d 9bf5 ca3c
00000080: 1915 983d 2aa0 f83c 17ba ee3c 2dc9 883d
00000090: 3e58 d33d 1e88 153d dae0 5abd de85 403b
000000a0: 6ff0 9ebd 26b4 0abd d843 b8bb d6fd 4ebb
000000b0: 1c4a 843d d8db e5bc 4337 303d 4f50 8fbc
000000c0: 6528 8f3c aaad e3bc a7bf 3fbd 1d2d f33d
000000d0: 0b6f 053b 5035 053d 486b 84bd 9ffd 6dbd
000000e0: 4300 2cbd 4d2a aabd 2f3c 843d d0c4 a0bd
000000f0: 70ba aa3d fe26 433d b456 ebbb 0d6e 8dbc
00000100: 496f 52bc a37b 15bd de23 afbd a924 38bc
00000110: f2a2 de3c a8f2 81bc 4e23 b6bd ef7e 24be
00000120: 3460 0e3d 177a 213d e74a 543d e7a5 cf3d
00000130: 6e74 883d 81cd 8a3d 9d07 803d dfbe b7bd
00000140: 8987 c8bc 2f77 e13c 6058 1cbd 464b 64bd
00000150: daf2 95bd 43dc 2bbc bd3c 8c3c d9b6 e5bd
00000160: 151e 383c b124 92bd e53a 5c3d b903 993d
00000170: f984 7bbd 58f5 ee3b 0a31 b23d db0b 7cbd
00000180: ecdf 5ebd c1b6 a0bd 9838 5c3d 23e8 833d
00000190: 04bb c03d 343a 2abd 3ca8 733d 162f cf3d
000001a0: 3320 633d 59fc f9bc 42bd 213c 2ba6 87bd
000001b0: 898e 17bc 864e 9bbc 6cbd 26bd 482e b3bd
000001c0: e797 0cbd 476a 033b 55cd 883d 0611 a33c
000001d0: 728b 9ebd a928 6cbd ca0b d0bb 4eac 3a3d
000001e0: 1748 813d 2aa2 2b3d e9cf 953d 4a97 253d
000001f0: c2fa b7bd f7e7 b9bd 1a06 ea3b b2f2 113d
00000200: 10e6 f63d 3a91 8a3d b822 273d 740d f83c
00000210: a98e acbb 0cea 3e3d 9881 cd3d 033b 7cbc
00000220: 8b6a 4f3c 05c7 3ebb 21b6 bf3d ece4 843d
00000230: 2b0d aa3c b62b 483d 76a9 8abd cd69 72bc
00000240: 204b 2e3d a028 79bd f329 713d 5998 0ebc
00000250: 8e02 f73d d96d b8bd 2c39 20bd f9a4 b63c
00000260: b63f b93d 6e91 0dbc 67ed 8a3c 37d4 a8bd
00000270: d68b 87bd 63f6 84bd b33c 003d 9ec6 a6bd
00000280: d3ea a33d 4692 453c 2e11 6b3d 92cf 88bd
00000290: 0017 ccbd 9712 9ebc f111 d9bd 995d 963d
000002a0: f816 513c b800 8f3d 41c2 5b3d 885c b23c
000002b0: a031 12bd 696a fcbc b136 2fbe 18f0 27bd
000002c0: b69d 293d fe6e adbd 9691 683d 1bfc 393b
000002d0: 8f8f ffbc 5700 d2bd 8550 7cbd cc85 153d
000002e0: 0b62 efbd 85df df3d 767f 8b3d 2465 d6bd
000002f0: 2c68 78bd 1564 9dbd 35d8 5a3c 08eb bc3d
00000300: 02ee 263d b326 8d3b ac36 7e3d 21e3 a33d
00000310: c8a9 423c 9060 dd3c 6628 423d ad9a 83bb
00000320: eb02 753d 54d5 9e3d 32b3 f7bc bc36 b8bb
00000330: 47f7 62ba db3b 673d 4474 e5bd 7d9c 96bc
00000340: e3a1 343c 8362 03bc 6390 1ebc b2d7 803c
00000350: 873a 84bd 2f60 7d3d 92b1 1f3e 0efe be3d
00000360: ac7c c6b9 e902 19bd b49f a3bd ee92 a3bc
00000370: a9f5 90bd 9d8f 973d 5dd1 873d 3f4c ba3c
00000380: a602 ab3a bdca c33d 5b13 08bd 5554 8fbd
00000390: ae27 e63c 0c42 153d 1b31 533d 38f0 893d
000003a0: 3056 8f3c 5195 b53a c217 8abd 9408 3b3d
000003b0: f544 62ba 1d6d 093e b55b 57bc 12e2 24bb
000003c0: 8a9a 3d3d fd08 8ebd 30bd bdbd b3eb 863b
000003d0: 0980 cd3d 0243 5c3c 3a23 f33d 19aa d1bc
000003e0: 0f3f bcbd b092 743c 1a49 00bd b3d6 f33c
000003f0: 2c94 3fbd 558a 8a3d e74a 1f3e 6384 1abd
-0.08813346 -0.03344023 -0.06466139 -0.0035591112 0.036061443 -0.13205415 -0.06935129 0.0017733491
-0.09265554 -0.037874583 -0.05539779 -0.03332424 -0.026547538 0.07470672 0.04759955 -0.014255373
-0.033049572 0.028421653 0.06020931 -0.04055087 -0.03881329 -0.03583829 -0.06823408 -0.06796429
-0.089331344 -0.007897861 0.032972537 -0.0007200735 -0.071418285 -0.028934542 0.05926138 0.024775317
0.07425899 0.03034981 0.029141469 0.06678996 0.10319565 0.036506765 -0.05343709 0.0029376666
-0.07760703 -0.03386321 -0.005623322 -0.0031584403 0.06459448 -0.028058931 0.04302145 -0.017494349
0.017475316 -0.02779277 -0.046813633 0.11873839 0.0020360376 0.032521546 -0.06465775 -0.0581032
-0.041992437 -0.083088495 0.064567916 -0.07850039 0.083363414 0.047644608 -0.0071819667 -0.01726439
-0.012843915 -0.036494862 -0.08551763 -0.011239209 0.027177308 -0.015862778 -0.088934526 -0.16064046
0.034759715 0.039423075 0.051829245 0.10139065 0.06662832 0.06777478 0.06251452 -0.08971953
-0.02447869 0.027522651 -0.03817022 -0.05573585 -0.07321711 -0.010489526 0.017118806 -0.11216516
0.011237641 -0.071359046 0.053767104 0.07471413 -0.06140611 0.007292431 0.0870076 -0.061534744
-0.054412767 -0.078473575 0.05376491 0.06440761 0.094106704 -0.041559413 0.059486613 0.10116403
0.05545063 -0.030515837 0.009871783 -0.06623491 -0.009250292 -0.018958341 -0.04070799 -0.08749062
-0.034324553 0.002005236 0.06679789 0.019905578 -0.07741441 -0.057655964 -0.0063490616 0.04557448
0.06312578 0.0419027 0.07315046 0.040427484 -0.08983375 -0.09077447 0.0071418406 0.035631843
0.120556 0.06765981 0.040804595 0.030279852 -0.00526603 0.046609923 0.10034484 -0.015394929
0.012659679 -0.0029110324 0.0936091 0.06488976 0.020758232 0.04886981 -0.06770603 -0.014795733
0.042552114 -0.06082976 0.058877897 -0.008703315 0.12061034 -0.09005327 -0.039117023 0.022295462
0.09045355 -0.00864063 0.016958905 -0.08243602 -0.066184685 -0.06492307 0.031307887 -0.08143352
0.080037735 0.0120588 0.05738943 -0.06680216 -0.099653244 -0.019295974 -0.10599125 0.07342071
0.012761824 0.06982559 0.05365205 0.021772638 -0.035691857 -0.030812459 -0.17110707 -0.041000456
0.04141017 -0.08468436 0.056779467 0.0028379026 -0.031196384 -0.10253971 -0.061600227 0.03650455
-0.11688622 0.10931305 0.068114206 -0.1046851 -0.06064622 -0.07685105 0.013357212 0.09224516
0.040754326 0.004307592 0.062063858 0.08002306 0.011881299 0.027023584 0.04740181 -0.0040162415
0.059817236 0.07755533 -0.030236814 -0.005621759 -0.0008658063 0.056453567 -0.112038165 -0.018385166
0.011024925 -0.0080190925 -0.009677979 0.015727852 -0.06456476 0.061859306 0.15595081 0.09325801
-0.0003785839 -0.03735629 -0.07989445 -0.019967522 -0.07078106 0.07400439 0.0663173 0.022741435
0.0013047054 0.09560154 -0.033221584 -0.06998507 0.028095093 0.03643994 0.051560502 0.06735271
0.017497152 0.0013853704 -0.06742813 0.045662478 -0.0008631491 0.1342053 -0.013144423 -0.0025159162
0.046289958 -0.06935308 -0.092646 0.004117453 0.100341864 0.01344371 0.11871953 -0.025593804
-0.09191715 0.014927551 -0.031319715 0.029765463 -0.046772167 0.06764666 0.15555917 -0.03772391

rnn.weight_hh_l1 f4 [512, 128]
00000000: f98f 953d 6da7 a03c df0e 94bc ff53 34bd
00000010: c056 213d 5507 a03d aca1 e93d cbb2 97bd
00000020: 95d7 bbbd 4fc3 c8bc 75a7 05bd 26f3 f73d
00000030: c1b7 53bb 5ee2 56bd f241 c43d e3fa 80bc
00000040: 8e76 d13c 36bb ca3c 7f27 8e3d 6c2f c23d
00000050: 836a 3d3d cac2 c43d c32a 8f3d ea03 f9bc
00000060: 70a2 65bb 5504 793d 081e a5bd ee1e 9b3d
00000070: 392a 993c 1fc0 a0bc d824 443d 7b6f d5bd
00000080: 6242 293b 5fde c6bb 0aba 83bd 2a5d 363d
00000090: a67c 5d3d c132 93bc f20c cfbd 8851 9dbc
000000a0: ae89 64bd a63f d1bd d0f1 ef3d 5f34 8cbc
000000b0: debe f13c 41d1 42bd 7607 4a3d 50c2 c43c
000000c0: 523f a63c d812 04bd f5e0 cbbc d86f a5bc
000000d0: 69a6 8d3d 9816 5d3c 1dde a03d 6c8b 88bd
000000e0: 9143 4dbd 391b a83d 93de d73c 7391 87bd
000000f0: 8ea3 fa3b f6be 69bc 4176 e93c 4cf0 773d
00000100: fc40 49bd 5b52 383c 87c2 c3bc e28c 913d
00000110: e473 343d 00e6 1fbd b4e4 58bd f347 92bc
00000120: 1130 cf3d 501a 963d 8cd8 933d 9ce4 63bd
00000130: 0ef2 e6bc 6adb 47bd f7ba 38bc 1adb 3b3c
00000140: 9a6f 5c3d 255f a0bb d972 de3d a19a 8abd
00000150: 9d83 263d 9a16 88bd cdd7 a93d 1327 83bd
00000160: 955d 893c 5322 393d 2179 ed3c 639c 7e3d
00000170: b850 743d 88b4 6f3d a961 8d3d d6a5 33bc
00000180: 6273 723d 00f9 923d 735d 8dbd 5011 d43c
00000190: fd4b 993d 4bc8 d73d 7d34 903d e11f ad3d
000001a0: 9de5 973d e80a 0fbc e4bc 153d ba88 17bd
000001b0: c04d 873b 77c6 7dbd ccfd b0bc c737 933d
000001c0: 37ed 05bd a596 04bd 68ff 573d edb8 fcbd
000001d0: f211 583d 8536 98bd ae46 87bd 8a63 69bc
000001e0: 4b2e 45bd e513 3a3d 79b6 8a3d 6b83 d4bc
000001f0: 65e4 5abd db4e d33d 53c9 77ba b7a6 c23c
00000200: c809 6abd 020e a0bd 7ea2 ae3d c3ea 8cbd
00000210: e27f 7d3d ac6f a0bc 0f2b 813b d3c6 3cbd
00000220: 58c1 e0bc bfed 19bd 119f 22bc 06a6 c8bd
00000230: 0888 863d 9766 82bd 57e5 9cbd 5551 663d
00000240: 1ade dcbd 3a05 ffbc 12de f2bd 9437 c7bc
00000250: 8b58 12bc 434f 453d 7d4e 2b3c 363e 843d
00000260: d49e f1bd 9914 123d e346 633c 512c 3ebd
00000270: 2071 1b3d bf9a bfbc 75c6 61bd f709 22bd
00000280: c8e4 1fbd 9cbc 7dbd 55d0 00bd e32d 873d
00000290: afcc 94bd f282 4d3d c0c5 e93c 32ce 203e
000002a0: 3c58 d7bd af51 30bc 97c8 d73c 654b 7c3d
000002b0: 3000 a43b ddb4 d2bc 4551 2d3d 9ebe 8f3b
000002c0: 63db 673d 7f39 32bd bf4d d8bb 58af 9cbc
000002d0: 4611 263d fa30 993d fe0b df3c 5066 d7bc
000002e0: 3406 55bd f82a bdbd f96b b2bc a6f1 8c3d
000002f0: 93ed 28bd a548 263d b7d5 27bd 3837 63bd
00000300: db17 23bd b73d db3c 877f 33bc 3996 92bd
00000310: 372a acbd 0315 7cbd 0317 95bb cb10 883d
00000320: 4b9b 51bd 5d24 c0bd 9bef ba3a 2018 a0bc
00000330: 2c6b 1b3d 5475 503d 6839 3e3d fc49 293d
00000340: 3658 23bb 70db 92bd ea4b 64bc 562c c9bd
00000350: d26b 77bb 2f13 b5bd 3b83 753c 9e8d 64bb
00000360: 1041 b13d ed2d 4d3d ba9e 6dbc a57b 96bd
00000370: 9703 06bb 17f3 a9bd bcbe b3bc e321 bf3a
00000380: 67dc 1b3b ce13 433d 7847 c4bd c3b5 823c
00000390: 2d3d df3d 7459 01bd 1305 81bc d006 123d
000003a0: c854 1d3d 9a2a ad3d 0b1d 433c 6468 333c
000003b0: 2712 393b c73d 8f3b 819c 4b3c c981 2cbd
000003c0: d260 703d f937 08bd e8a1 aebd 9ba6 c2bc
000003d0: 9324 acbd d7a7 d23c e555 df38 5c09 da3c
000003e0: b6cf a9bd 6edb f0bd a0cd ffbc 7907 f2bd
000003f0: 38af 1a3d 0513 403d 0a4f 96bd ea99 c2bc
0.07302851 0.019611085 -0.018073497 -0.044025417 0.039389372 0.078138985 0.114077896 -0.07407149
-0.091719784 -0.024507193 -0.032630403 0.12106924 -0.003230557 -0.052461974 0.095828906 -0.015744632
0.025569227 0.024747472 0.06941127 0.09481701 0.046244156 0.096074656 0.06990578 -0.030397374
-0.0035039447 0.060795147 -0.08062369 0.07574259 0.018696891 -0.01962286 0.0478867 -0.10421654
0.002582692 -0.006068989 -0.064319685 0.044522442 0.054073952 -0.017968537 -0.10109891 -0.019203916
-0.055795364 -0.10217218 0.11716044 -0.017114816 0.029509958 -0.04756284 0.04932352 0.024018437
0.020293865 -0.032244533 -0.024887541 -0.020194933 0.06916506 0.013494156 0.07854865 -0.066672176
-0.050113264 0.08208317 0.026351249 -0.06619539 0.007648892 -0.01426672 0.02849877 0.0605319
-0.04913424 0.011250104 -0.023896469 0.071069494 0.044055834 -0.039037704 -0.052952483 -0.017856574
0.1011659 0.073292375 0.072190374 -0.05563794 -0.028191593 -0.048793234 -0.011275045 0.011465812
0.05381737 -0.0048941546 0.10861749 -0.067677744 0.04065286 -0.06644936 0.08293114 -0.06403937
0.016768256 0.04519875 0.028988423 0.06216086 0.059647292 0.058521777 0.06903393 -0.010964831
0.05919207 0.07176399 -0.0690259 0.025887161 0.07485197 0.1053625 0.07041261 0.08453346
0.07416842 -0.008730628 0.036557093 -0.036995627 0.0041291416 -0.06195685 -0.021605395 0.07188373
-0.03269693 -0.03237023 0.05273381 -0.12339959 0.05275149 -0.07432274 -0.06605278 -0.014244923
-0.04813985 0.04542913 0.06773085 -0.025941571 -0.05344047 0.10317775 -0.0009452302 0.023761136
-0.057138234 -0.07815172 0.08527087 -0.06880715 0.061889537 -0.0195845 0.0039419006 -0.04608805
-0.027435943 -0.037580248 -0.00992562 -0.097972915 0.06568915 -0.06367224 -0.076609306 0.056229908
-0.1078455 -0.031130422 -0.11858763 -0.024318494 -0.008932243 0.048171293 0.010455725 0.06457178
-0.11797872 0.035664175 0.013871881 -0.046428982 0.03794968 -0.023389218 -0.055120904 -0.039560284
-0.039036542 -0.06194745 -0.03144868 0.06600549 -0.07265603 0.050173707 0.028536677 0.15703657
-0.10514876 -0.010761662 0.026340766 0.06159534 0.005004905 -0.025721008 0.042313833 0.004386737
0.056605708 -0.043511864 -0.006601065 -0.01912658 0.040543817 0.07480045 0.027227398 -0.026293904
-0.05200787 -0.09236711 -0.021780001 0.06882028 -0.041242193 0.040596623 -0.0409753 -0.055472583
-0.039817672 0.026762826 -0.010955698 -0.07157559 -0.08406489 -0.061543476 -0.0045498624 0.06643828
-0.05117349 -0.09381936 0.0014262082 -0.019542754 0.037944004 0.050893143 0.046441466 0.041330323
-0.0024924404 -0.07170761 -0.013934115 -0.098229095 -0.0037753475 -0.088415496 0.014984901 -0.003487445
0.08654988 0.050092626 -0.014503175 -0.07347802 -0.0020448917 -0.08298319 -0.021941535 0.0014582243
0.0023782493 0.04762631 -0.09583944 0.015955811 0.1090034 -0.03157945 -0.01574949 0.03565103
0.03841093 0.08455391 0.01190878 0.010950182 0.002823958 0.004371378 0.01242745 -0.04211596
0.058686085 -0.033256505 -0.08526975 -0.023761084 -0.084054135 0.025714798 0.00010649468 0.026615791
-0.08291571 -0.11760603 -0.03122598 -0.118178315 0.037764758 0.04689314 -0.07339294 -0.023755033

rnn.bias_ih_l1 f4 [512]
00000000: db34 98bd 514c 9bbd e20d 643d 90d6 1fbd
00000010: 695c c73c 2fcb 063c c5a4 c3bd ba1c bbbc
00000020: 6593 90bd 1c57 b5bd ed08 05bd 8963 293c
00000030: 6bf0 8cbc 0dd1 0ebd 5a58 9ebd d8c7 a93d
00000040: 39e0 abbb f24b cebd 04a2 b7bd 8b5b 973d
00000050: 140d bbbd 4834 fc3a f0cf 15bd cc11 cabd
00000060: 3d1e 133c bf84 843c 04c3 0bbe 3462 3ebd
00000070: 6e0e 1f3d 21ac d0bd 5d4d 76bd 12e0 a93c
00000080: 08f0 d4bc 3f97 edbd 3242 5c3d 4680 19bd
00000090: 8c61 afbd 635d c6bd 7c87 97bd 1b70 acbd
000000a0: 6926 b43d 0517 4bbd 4ef1 ccbd 45c4 d3bb
000000b0: 058c 8ebd 692e 0b3d 6329 9fbd 8d76 8bbd
000000c0: b36f 41bb e109 ebbd 4f58 9cbc 5ed7 23be
000000d0: 5e7f a73c 3f39 b23c 3fa9 16bd 5479 203a
000000e0: 28ed 4b3d a09c 5ebd e102 a7bd 0c23 113d
000000f0: 086c c5bd 8a3e b7bb 90b8 143d aeef cbbc
00000100: e6be d0bc b2ce 3abd 294a 28bb 3270 67bd
00000110: 86bd debd 1a77 1c3d 8558 6e3d 618f 3c3d
00000120: d63f 73bc bd8f 9abc 88a3 9cbd 3168 16bd
00000130: 13a8 8bbd 77c1 60bb ca32 613c 222a 073d
00000140: 87d6 4bbd 96fc a03d a2b2 30bd 629e a83d
00000150: 2a22 b63c 83a7 6abd 7220 8dbd da37 f8bc
00000160: 2d45 a43d 5a46 643d ab16 a9bd c164 febd
00000170: 3981 afbd c06a c0bd 2984 5e3a 1422 0fbd
00000180: 0424 ccbd 6f97 a23d c694 b0bd d87a 563d
00000190: ecc6 98bd aaa9 68bd 0560 04be 6ea6 bdbd
000001a0: 4263 b0bd f4e5 7bbd b47b b2bd f48f 6bbd
000001b0: 0918 1a3d 00de 73bd 8eca 3ebc afae 133d
000001c0: 7c48 4dbd 24fb 0fbd 7aa5 ac3c a0e0 b3bd
000001d0: a74a 353b fbc9 c73d bfa6 933c 68a0 82bd
000001e0: dea0 4a3c 66b4 9cbc 2a2c 48bd 4de2 f1bd
000001f0: 0730 ba3c 74aa a73d 8d1f 643b 8425 863c
00000200: 22fb 343d 9c38 a0bd 28f0 663d 6724 e0bb
00000210: 261b b2bd 7c86 04be c4e4 98bd d341 c43c
00000220: 6d28 a0bd a81b 70bd 0cf7 1b3d cff2 9bbc
00000230: 492f 50bb 9505 3ebc 5988 b63c b9cd 753c
00000240: 9870 91bc 0c10 d5bd 84e5 cbbd 1b59 9dbd
00000250: 0207 8f3d a9ed 4d39 eb40 59bd bfcc b4bd
00000260: eea1 843d eaa5 5cbd 5f0e ffbd dddd f2bd
00000270: 78b0 2c3d 092e 663b 826b 37bd a455 483c
00000280: 0eea 5ebc 15b6 eabd 1238 103c ea54 06be
00000290: 1bba 7dbd 11c9 0e3d f38a 30bd 4c74 863b
000002a0: 5c25 5e3d 7686 8c3c 1297 b7bd acee 9f3d
000002b0: 6cee 8cbc 3bcc e9bd 0ac1 82bd dd9c 8abd
000002c0: be72 a3ba 82a2 e7bd efb9 d8bd d392 b4bd
000002d0: 2013 cb3c e31a b43d 141b 01bd 8c24 b53a
000002e0: d14a 51bd 7100 28bd 7415 1ebd 69a8 86bd
000002f0: 7e5a 08be b596 3bbd 23f2 4cbd a92b 7bbd
00000300: b1ab bf3c 0404 cfbd c711 5c3d e0b9 8ebd
00000310: 67bc eabc e246 adbd b48e a23d b61c 1a3d
00000320: a12e 4bbd 4dbd 993c ef9c 0dbd 11a7 04be
00000330: 3020 a23c e0b9 19bc 8bdc dcbc aa06 81bc
00000340: 6b78 bdbb 2b7f b23c dc72 0fbe 75f2 ebbb
00000350: 756c 623c 1286 bb3d 2004 cbbb e5db 5ebd
00000360: dda4 a1bd 6016 463c f680 76bc 8639 a73c
00000370: 415f cbbd 75b1 e93c fa56 9c3d 8579 cebd
00000380: 16c9 84bd 0b7b abbd ea91 583d 3f5a 68bd
00000390: 0990 babc a2cc 9cbd 465f cbbd 4486 bebd
000003a0: c094 dbbd 6d56 25bd 3557 93bd 483d 8e3c
000003b0: e45c acbc 58e4 8bbd 597f 99bd a5da 4ebd
000003c0: cba1 fe3a 9559 ccbd d21e 6bbd d365 723d
000003d0: 44e9 c7bc b840 0dbd a27d d1bc a3f8 923d
000003e0: 83d5 023d 924c b3bd 00ff d3bc 2840 60bd
000003f0: cc8f dfbc 787d 4a3d 6acd 70bd 9e39 aebc
-0.074319564 -0.075829156 0.055677302 -0.039022982 0.024336057 0.008227154 -0.09552912 -0.022840846
-0.07059363 -0.088545054 -0.032479215 0.010338672 -0.017204484 -0.034867335 -0.077316955 0.0829007
-0.0052452353 -0.10073079 -0.08966449 0.07390507 -0.09133354 0.0019241655 -0.036575258 -0.09866676
0.008979377 0.01617658 -0.13648611 -0.046480373 0.03883212 -0.10189081 -0.060132373 0.020736728
-0.025993362 -0.116011135 0.053774066 -0.037475847 -0.085635275 -0.09685781 -0.073988885 -0.0841982
0.08796389 -0.0495825 -0.10006963 -0.006462606 -0.069603 0.033979807 -0.07771566 -0.06809721
-0.002951604 -0.114764936 -0.019085078 -0.16000125 0.020446476 0.021755813 -0.0367825 0.0006121595
0.049786717 -0.054348588 -0.08154846 0.035433814 -0.09639746 -0.005592172 0.036308825 -0.024894562
-0.025481652 -0.045607276 -0.0025678969 -0.056503482 -0.108759925 0.03819952 0.058189888 0.046035174
-0.014846763 -0.018867368 -0.076483786 -0.03672046 -0.06819167 -0.0034295002 0.013745019 0.032999165
-0.049765136 0.07860677 -0.043139108 0.08233334 0.022233088 -0.057288658 -0.06890954 -0.03030007
0.08021007 0.055731155 -0.08256277 -0.12421561 -0.08569569 -0.09395361 0.00084883213 -0.03494461
-0.09967807 0.0793904 -0.08622126 0.052363247 -0.07459816 -0.05680243 -0.12927254 -0.092602596
-0.08612682 -0.061498597 -0.08715001 -0.05751033 0.037620578 -0.059537888 -0.0116449725 0.036055263
-0.050117955 -0.035151616 0.021075 -0.08783078 0.0027662904 0.097553216 0.018023847 -0.06378251
0.012367455 -0.01912899 -0.048870243 -0.118107416 0.02272798 0.08186808 0.0034808845 0.01637531
0.04418481 -0.078232974 0.056381375 -0.006840277 -0.086965844 -0.12941927 -0.074655086 0.023957169
-0.078202106 -0.058620125 0.0380774 -0.019036679 -0.0031766465 -0.011598011 0.022281813 0.015002661
-0.017753884 -0.10403451 -0.09955886 -0.07683011 0.069837585 0.00019638859 -0.053040426 -0.08828115
0.06476198 -0.053869165 -0.12453913 -0.11858723 0.04216048 0.0035122654 -0.04478026 0.01222745
-0.013605608 -0.11460511 0.008802431 -0.1311833 -0.061945062 0.03485972 -0.043101262 0.004103219
0.054234847 0.01715396 -0.08964361 0.07809195 -0.017203532 -0.11415907 -0.063844755 -0.067682005
-0.0012470109 -0.11310293 -0.10582339 -0.08817067 0.024789393 0.08794191 -0.031519964 0.0013820096
-0.05109674 -0.041016046 -0.038594678 -0.065750904 -0.1331577 -0.045798022 -0.050035607 -0.061320934
0.023397299 -0.10108188 0.05372789 -0.069690466 -0.02865429 -0.084607854 0.07937375 0.037625037
-0.049605016 0.018767023 -0.03457349 -0.12954356 0.019790739 -0.009382695 -0.026960632 -0.015750248
-0.005782177 0.021789154 -0.14008659 -0.007200534 0.0138198035 0.09156431 -0.00619556 -0.054408927
-0.07892773 0.012090296 -0.015045395 0.020413171 -0.099302776 0.028527 0.07633777 -0.10081772
-0.064836666 -0.08373078 0.05287353 -0.05672669 -0.02277376 -0.07656218 -0.09930281 -0.09302953
-0.10721731 -0.040365625 -0.07194368 0.017363206 -0.021040387 -0.068306625 -0.07494993 -0.050501484
0.001942688 -0.09978024 -0.05740244 0.05917914 -0.024403222 -0.03448555 -0.025572602 0.0717633
0.031941902 -0.08754839 -0.02587843 -0.054748684 -0.027290247 0.049436063 -0.058789648 -0.021267708
